Fibrosis_EDA_model2.bin (torch, 93381 bytes, 8 tensors)

layer1.weight f4 [200, 9]
000000 11 a2 f0 3e 2a 58 27 3c 06 df a5 be 8f 60 98 be
       0.46998647 0.010213891 -0.32396716 -0.29761168
000010 d4 bf 82 bd 1f 98 11 3f 8f 51 48 3f 30 91 70 3e
       -0.063842446 0.56872743 0.7824945 0.23492885
000020 40 42 18 bd 0e 79 c2 3b ba 51 83 be 02 c0 07 3e
       -0.037172556 0.005934841 -0.2564829 0.13256839
000030 f2 fb 51 3e 18 5d 82 3d 33 37 ca 3c bd 1c 0a bf
       0.20506266 0.063654125 0.024684524 -0.539501
000040 a7 fb a7 3e 9a 3e c6 be 4a 23 cf be 1a bd 64 be
       0.32809183 -0.38719636 -0.4045661 -0.22337762
000050 1e 44 04 be 79 93 e8 3e 55 e6 e4 3e d9 ee b4 3e
       -0.1291661 0.45425013 0.4470698 0.35338476
000060 cf 2f 8b be 80 53 9c 3e a4 6f af bd da e7 9d be
       -0.27184913 0.30532455 -0.08566216 -0.3084095
000070 2f 62 f7 3e 59 26 af 3b 97 28 81 be df a1 3f 3e
       0.48317096 0.0053451476 -0.2522628 0.18714093
000080 cc 2d f8 bd 74 9d d0 be 3f 15 53 be c7 22 66 be
       -0.1211811 -0.40745127 -0.20613573 -0.22474204
000090 b1 7f 9d be d1 78 85 be 50 03 83 be 07 79 e3 3e
       -0.30761483 -0.26068738 -0.25588465 0.44428274
0000a0 d6 98 93 bf 66 98 09 bf 9f 4c 39 bc 3b 92 29 bf
       -1.1531017 -0.53748167 -0.011309772 -0.66238755
0000b0 ca 33 01 bf 8c 80 85 3e 54 1a 92 3e 7d 88 ca 3e
       -0.5046965 0.26074636 0.28535712 0.39557257
0000c0 8e 9d 95 3e 63 3b 3a 3e 0a 4a 4c be 42 2f 4c be
       0.29221767 0.18186717 -0.19950119 -0.19939902
0000d0 20 a1 37 bd 3b 24 54 be df 5e ea 3e a3 4c b4 3d
       -0.044831395 -0.20716946 0.45775506 0.0880368
0000e0 60 e8 0a 3f ab 1b 98 be b5 6e 59 3e e8 ff f2 3e
       0.54260826 -0.2970861 0.21233638 0.47460866
0000f0 20 71 e4 3e 46 cb 23 3f ac 44 ab 3e 78 5c 04 3f
       0.44617558 0.63982046 0.3345083 0.51703596
000100 04 fb da 3e ae ba 99 3e 24 97 90 be bb 49 2e 3f
       0.42769635 0.30025238 -0.2824031 0.68081254
000110 57 51 28 3f b5 fd d6 3e 86 f5 44 3e 5b 1a bf 3e
       0.65749115 0.41990438 0.19234285 0.37324795
000120 fa f9 f0 3e a9 b2 0d 3f 64 3b 23 3f 10 12 a9 be
       0.47065717 0.5535074 0.637625 -0.33021593
000130 24 53 27 3f 43 13 81 3e 67 5c fc 3e 0e 3f ca 3e
       0.6536124 0.25210008 0.49289247 0.39501232
000140 47 1e ea 3e 55 9c eb be de cc 1f 3f 00 61 59 3e
       0.45726225 -0.4601771 0.6242198 0.21228409
000150 bc d6 c1 3e 76 3e 80 3e fc da af 3e a4 6a 86 3d
       0.37859142 0.25047654 0.3434676 0.06563309
000160 cf a1 03 3f 4d 0f a1 3e 96 dd b3 3c 45 8a f6 3e
       0.51418775 0.31456986 0.021956246 0.48152366
000170 e9 41 41 3e 23 24 ca 3e 59 70 b1 3d 77 cc c2 3e
       0.18872799 0.39480695 0.08664007 0.3804662
000180 8d 2c 2d 3e 68 4d 12 3e d7 cb 38 3f 1e b5 6b 3e
       0.16911526 0.1428734 0.72186035 0.2301831
000190 62 5b 71 bd ab 29 f2 3e d4 63 ec 3e df cc e1 3e
       -0.05892504 0.47297415 0.46169913 0.44101617
0001a0 49 4e 26 3f 3a 63 d3 3e 02 47 00 3f 9a bb de 3e
       0.64963204 0.4128664 0.5010835 0.43502504
0001b0 e1 5a be be 86 ab e7 3d 88 aa 6a be 86 50 14 bf
       -0.3717871 0.113120124 -0.22916615 -0.5793537
0001c0 ea 58 da 3e c5 ae 0f 3f 21 f2 14 3f 7f c7 88 3d
       0.4264596 0.5612605 0.5818196 0.06678676
0001d0 aa b6 0e 3f 37 cf be be 03 6c 23 3e 48 02 88 3e
       0.55747473 -0.37267467 0.15959172 0.2656424
0001e0 96 5c 02 bf 3d 46 78 3e 60 16 dd 3e 5c e4 cd be
       -0.50922525 0.24245544 0.43181133 -0.40213287
0001f0 59 be 32 be f3 3b 51 3e 36 d3 8d be 3d 42 22 3f
       -0.17455424 0.20433025 -0.27700204 0.6338232
000200 a0 40 cf 3e 37 aa 2f 3e b6 17 b3 3e e2 1d 88 3e
       0.40478992 0.17154776 0.34979028 0.265853
000210 37 c7 52 3f 40 36 1f 3f fa c6 0b 3e e8 58 7f 3e
       0.8233523 0.62192154 0.13650122 0.24936259
000220 d8 d5 cc 3e 4a ef f5 3e 9e 67 00 bd f7 09 0c 3f
       0.400069 0.48034126 -0.031348817 0.54702705
000230 09 55 7a 3e 72 93 2d 3f 4c 19 84 3e ec 1a 28 3f
       0.24446501 0.6780311 0.2580055 0.6566608
000240 26 0a ff bc 49 dc 0d 3f ed bb 96 bd c3 e1 b6 3c
       -0.031132769 0.55414253 -0.07360063 0.022324448
000250 34 68 48 bf 9c a8 1e be f2 95 02 be e7 38 3f be
       -0.78284 -0.15494007 -0.12752512 -0.1867405
000260 14 74 d3 3b 3e 50 57 3d d4 38 1b 3f c1 8d 59 3e
       0.0064530466 0.05256676 0.6063359 0.21245481
000270 18 5b 09 3e 27 2b e7 3e 6d c9 ea 3e 88 3a f4 3e
       0.13413656 0.4515011 0.458568 0.47700906
000280 96 05 95 3e 70 13 18 3f 95 bb b8 3e f4 91 0e 3e
       0.29105824 0.5940466 0.36080614 0.13922864
000290 aa ec 08 3f cc e6 20 3e 99 51 18 3e a9 a7 6e 3e
       0.5348612 0.15713042 0.14874877 0.23306145
0002a0 12 71 2a 3f 9d 02 26 3f 7a b9 ca 3e 88 71 1e be
       0.6657878 0.6484774 0.39594632 -0.15472996
0002b0 06 7b 00 bf cf 35 06 bf 11 71 ce bd 18 a4 33 bf
       -0.5018772 -0.52425855 -0.100801595 -0.7017226
0002c0 ab 4a 44 bf fc 49 51 bf 2e a2 49 bf d7 87 39 bf
       -0.76676434 -0.81753516 -0.7876309 -0.724729
0002d0 40 ee 95 be 5d 76 5c 3e a7 a5 ab 3e 9c 8a 94 be
       -0.29283333 0.21529527 0.3352482 -0.29012
0002e0 bd a7 cc be 9b 1c 82 3e 33 fc 05 bf 4c 55 82 3e
       -0.39971724 0.2541245 -0.5233795 0.254557
0002f0 b2 e7 98 3e bd c4 1c 3f c0 c9 46 be 3e 46 d8 3d
       0.2986427 0.612377 -0.19412899 0.10560273
000300 c6 43 69 bc e8 d0 bc be 75 7f e6 3e 4d 40 6d 3f
       -0.01423735 -0.36878133 0.45019117 0.9267624
000310 e3 89 79 3d 46 4d 50 3e 26 78 d2 be 97 d9 8c 3c
       0.060922515 0.20341977 -0.4110729 0.017193599
000320 3f 06 40 be 9f 40 1b 3e 64 c6 ef 3e 10 3d c7 bd
       -0.18752383 0.1516137 0.46831048 -0.097284436
000330 80 3b 10 be f5 ae 32 3e b0 7d 33 3f 1b a3 b3 be
       -0.14085197 0.17449553 0.7011366 -0.35085377
000340 f7 98 77 3e 47 c9 a1 3e c4 0d fd be f1 be e5 3e
       0.24179445 0.31598875 -0.49424565 0.4487224
000350 73 9e 13 3f 9a 38 2e 3f 16 f8 12 3f 49 64 2f 3f
       0.5766365 0.6805512 0.574098 0.685124
000360 e4 7c 50 be 7b 4b 4c be e2 fa 46 3e 40 94 6a bd
       -0.20360142 -0.19950669 0.19431642 -0.05727029
000370 9d aa ac be 2d 96 a2 be 5e 82 c6 be 4a 96 fc be
       -0.33723918 -0.317552 -0.38771337 -0.4933341
000380 86 f2 d1 be 5e 52 f3 3e 1f a7 7b bd 40 1e d8 3d
       -0.41005343 0.4752378 -0.061438676 0.10552645
000390 32 02 41 3e 70 46 1e be 72 b2 1a be a9 06 3a be
       0.18848494 -0.15456557 -0.15107134 -0.18166603
0003a0 2e c3 eb bd 65 7d d5 be b2 33 88 be b2 70 2c be
       -0.11511837 -0.4169723 -0.2660194 -0.16839865
0003b0 61 ed 0c bd ba 8b d7 be 61 7d 3c be 35 b7 86 3e
       -0.03440607 -0.4209879 -0.18407203 0.2631165
0003c0 e7 cd 2e be e0 99 9b 3e be a4 a4 3e a8 35 24 3e
       -0.17070733 0.30390835 0.32156938 0.16036093
0003d0 8c ab 00 3c 4b 38 10 be f3 df 1b bf e3 97 8f 3e
       0.0078534 -0.14083974 -0.60888594 0.28045568
0003e0 f9 c4 2a 3f 2d 0a 3b 3f aa f3 5c 3e 66 34 25 3e
       0.66706806 0.730624 0.21577325 0.1613327
0003f0 2c 89 06 bf ef 2a 08 be 68 b8 aa 3e b7 14 08 bf
       -0.5255306 -0.13297628 0.33343816 -0.5315661

layer1.bias f4 [200]
000000 c7 6f 27 3f f3 5d 71 3d c9 73 9f bd 39 28 f5 3d
       0.65404934 0.058927488 -0.07785756 0.119705625
000010 17 e9 40 bf ab 16 33 bd 66 ea be 3e 81 5c 1b 3f
       -0.75355667 -0.04372279 0.37288207 0.60688025
000020 ef 5f 15 3f dc 7f 22 3f 61 a1 34 3f 71 7f ec 3e
       0.5834951 0.6347635 0.70558745 0.4619098
000030 f5 4f 4e bc 04 9e 59 3e ff 60 3f 3f 7b d1 40 3f
       -0.012592305 0.21251684 0.7475738 0.7531964
000040 e9 0a 4e 3e 1c 4a 09 3f 92 04 36 3f 2d f8 3a bf
       0.2012135 0.53628707 0.71100724 -0.73034936
000050 61 e4 a4 be 7c 96 e7 bc 8b cf b4 3e df 1b 2e 3f
       -0.3220549 -0.028269999 0.35314593 0.6801128
000060 10 cf 1e bf 9f 81 91 bd bc f0 bb bb 75 29 1b 3f
       -0.620347 -0.071048014 -0.005735485 0.60610133
000070 64 11 b0 3e f5 93 29 be 8d 2c da be 89 e2 19 be
       0.34388268 -0.16560347 -0.42612115 -0.15027823
000080 68 53 a8 3e 00 d8 be 3e d2 64 27 be 52 2a 21 3f
       0.32876134 0.3727417 -0.16347054 0.629552
000090 08 fe 54 3e fd 1c c1 3e b4 cb f8 3e d4 57 3f 3f
       0.2080003 0.3771743 0.48592913 0.7474339
0000a0 9e ad 8e bd d3 4b 35 be 36 ec 38 3d 00 c5 b7 be
       -0.069667086 -0.17704706 0.045147143 -0.35892487
0000b0 31 94 32 3f 0b 53 c3 3e e0 61 c5 3e e4 e5 53 bf
       0.6975737 0.38149294 0.38551235 -0.8277266
0000c0 7e 4e bb bc 9f 9b 4f 3e 47 b8 07 3f a7 43 dc 3e
       -0.022864576 0.20274208 0.5301556 0.43020365
0000d0 02 66 cd 3d c5 66 77 3d fe 65 06 3f c6 07 4b 3d
       0.10029222 0.060400743 0.5249938 0.04956796
0000e0 9e e2 eb 3e d8 8d d9 be e0 15 2b 3f c2 6a 01 3f
       0.46071333 -0.4249103 0.66830254 0.50553524
0000f0 d1 83 d4 3e 89 93 6c 3e 9a 42 19 3f df db 8c be
       0.41506818 0.23103155 0.5986725 -0.27511498
000100 71 40 09 be c4 bd 46 3d 3c 80 d6 bc d2 a0 8c 3d
       -0.13403489 0.04852082 -0.026184194 0.068666115
000110 24 ea 28 3f 10 f7 44 3f c6 62 d1 be 9f 2f c3 3e
       0.6598227 0.7693949 -0.4089567 0.3812227
000120 6e 3b fb 3e ad f8 3d 3f 86 67 2e 3f 1a e4 1a 3f
       0.4906878 0.74207574 0.68126714 0.60504305
000130 de cd 3a 3f f7 9a b6 3e c8 53 eb 3e 75 2a db 3e
       0.7297038 0.35665104 0.45962358 0.4280583
000140 b4 c5 9a 3e 6c 66 0b 3e ea ea cf 3d 79 b3 28 be
       0.3022896 0.1361329 0.10152228 -0.16474713
000150 01 70 1e 3f ea 18 0c 3f 6c 0d 68 be 38 85 4e bc
       0.61889654 0.54725516 -0.2266137 -0.012605004
000160 50 e8 22 3e 4a 95 87 3e 5b 73 14 3e fc 39 06 3f
       0.15908933 0.26481086 0.1449713 0.5243223
000170 d5 31 ec 3e f8 f5 0c 3f 75 64 c9 3e ae 68 d7 3d
       0.4613177 0.5506282 0.39334455 0.10518013
000180 58 1f 89 3e fa fd c2 3e 1f ff f2 bd 48 d4 bc 3e
       0.26781726 0.38084394 -0.11865067 0.36880708
000190 03 86 a7 be 15 2b 22 3f 93 66 16 bb d3 dc 4b 3f
       -0.3271943 0.6334699 -0.0022949323 0.79633826
0001a0 f6 4a 63 bd 5f f5 2c 3f 20 75 a6 3b a1 70 48 3f
       -0.05549141 0.67561907 0.0050798804 0.7829686
0001b0 34 3f c9 3e fb 82 d7 3e b6 a2 3a bd 25 aa 0d 3e
       0.39306033 0.42092118 -0.04556533 0.13834436
0001c0 67 00 39 3e f6 52 3b be e7 0c 68 3e 15 51 ff 3e
       0.1806656 -0.18293366 0.22661172 0.49866548
0001d0 d7 cf 54 bd d3 0b 3e 3e 57 1f 44 3d 1f 3d c1 bd
       -0.051956024 0.18559198 0.04788145 -0.09435486
0001e0 bc 1c ec be c0 07 4d bf 9c 11 ce bd 1f 9f 53 bc
       -0.46115673 -0.8008995 -0.100619525 -0.012916355
0001f0 66 51 db 3e 90 86 2d 3f e3 be 87 3e f4 68 af 3e
       0.4283554 0.6778345 0.26512823 0.3425976
000200 54 10 3b 3f 90 c4 af 3e 3b 98 54 3e 0c c0 34 3f
       0.7307179 0.34329653 0.20761196 0.7060554
000210 a1 47 39 3f ef 30 95 bd 77 83 37 3f 2c b8 7a bd
       0.7237492 -0.07284724 0.71684974 -0.061210796
000220 a6 4b 27 3e 5c 91 35 3e 62 90 2b 3e 8e e8 3a 3f
       0.16337451 0.17731231 0.16754296 0.730111
000230 3b 5e 12 3f 33 7c a8 3e c4 26 fb be 34 aa 78 3e
       0.57175034 0.32907256 -0.49053013 0.24283677
000240 14 e8 0b 3f a7 60 2b 3f 64 23 d7 3e 65 df ce 3e
       0.54651 0.66944355 0.42019188 0.40404812
000250 33 83 e2 bd a0 1c 06 3f 47 d1 3d 3d 41 0b ca 3e
       -0.110601805 0.5238743 0.04634216 0.3946171
000260 6a 49 8d bd 45 9c a4 be fe 83 3f 3f 17 6a ea 3e
       -0.06898768 -0.32150474 0.7481078 0.45784065
000270 5f a4 7f bd 5b 62 3f 3f 5d 00 2d bf c1 59 1b bf
       -0.062412616 0.74759454 -0.6757868 -0.6068383
000280 fc 3f 13 3f 44 ac ea be b2 dd 32 3f ab a7 20 bf
       0.5751951 -0.45834553 0.6986953 -0.6275584
000290 6a 4c 1b 3f 3c 48 0d 3d 83 09 2f 3e 2e a8 a7 3d
       0.60663474 0.034492716 0.17093472 0.081863746
0002a0 66 79 fb 3e 92 8a 3c 3f 90 af b7 3e e0 af 2e 3f
       0.49116057 0.7364894 0.3587613 0.68237114
0002b0 15 28 b2 bc 01 5e 30 3f c8 94 07 3f 20 a0 13 bf
       -0.021747628 0.6889344 0.529614 -0.57666206
0002c0 be 7d 03 3e f0 9b d2 3e 9d f6 97 be 07 c3 e2 3d
       0.12840936 0.41134596 -0.29680339 0.11072355
0002d0 f3 a4 b9 3e 73 3c 8b 3e 55 c2 0c 3f 62 c0 81 be
       0.3625866 0.27194557 0.5498403 -0.2534209
0002e0 5d e6 22 3f af f6 af be ae ac 0e 3e f2 be 1f 3e
       0.63632756 -0.34367892 0.1393306 0.15600184
0002f0 5c 56 6c 3d df 32 62 bf 88 0a 1a 3f c6 75 7b 3d
       0.057699546 -0.88358873 0.6017232 0.061391614
000300 70 a3 14 3f be db 3f be 55 38 e8 3e be 1b 6e 3e
       0.58061886 -0.18736169 0.45355478 0.2325277
000310 85 92 9b be 8e 21 55 bf d9 a1 e2 bd c9 6e ea be
       -0.30385223 -0.83254325 -0.11066026 -0.45787647

layer2.weight f4 [100, 200]
000000 be cb a6 be 34 69 f7 be 58 7a 05 bf 76 d3 07 bf
       -0.32577318 -0.4832245 -0.52139807 -0.5305704
000010 72 af 0a bf 3d 8d ef be a5 43 4f be a9 7c 3a be
       -0.5417396 -0.46787444 -0.20240648 -0.18211617
000020 2a 78 59 be 3b 5f ca be c7 74 c4 be 45 2a b6 be
       -0.21237245 -0.3952578 -0.38370344 -0.35579124
000030 3b c1 0c bd 95 12 e7 be 39 98 d2 be 81 4a 8f be
       -0.034363966 -0.45131364 -0.41131762 -0.2798653
000040 a4 4b da be f7 45 6e be 58 43 67 be 6d 0f da 3e
       -0.42635834 -0.23268877 -0.22584283 0.42589894
000050 8b 05 e3 be f3 5e 35 3e c1 42 e3 be 94 a4 cb be
       -0.44340166 0.17712002 -0.44386867 -0.39774
000060 d4 3f 12 bf f0 f9 f1 be 5e d3 17 3f d9 a5 ba be
       -0.57128644 -0.47261 0.59306896 -0.36454657
000070 73 2d 92 be a0 41 17 bf e6 f4 0c bf d2 92 d0 be
       -0.285503 -0.5908451 -0.55061185 -0.40737015
000080 c8 e9 77 be 8c 4f 78 be 9f d8 e1 be f0 ca 5a be
       -0.24210274 -0.24249095 -0.4411058 -0.21366477
000090 09 6c 73 3e 30 a5 0d be f1 5c a8 be 53 e4 b7 be
       0.23771681 -0.13832545 -0.3288341 -0.35916385
0000a0 b6 f6 1b bf fd 8f af 3e fe 00 07 bf 3d 55 d3 be
       -0.60923326 0.34289542 -0.5273589 -0.4127597
0000b0 8a 00 b3 be 3d 0d b6 be 2b 2d b2 be d5 e4 f8 be
       -0.3496135 -0.35556975 -0.34800085 -0.48612085
0000c0 51 f6 ae 3c 3a fc a4 be fd 67 bc bd 26 44 d9 3e
       0.021357687 -0.32223684 -0.09199522 0.42434806
0000d0 43 e0 01 be 3e 9c a1 be af 40 cf be 27 6a c3 bd
       -0.12683205 -0.31564516 -0.40479037 -0.09541731
0000e0 6f 46 55 be c0 c8 23 bf 8b 6c c9 be f4 87 ed bd
       -0.2082765 -0.63978195 -0.39340624 -0.115981966
0000f0 60 d9 b3 be 6b 0d c2 bd 90 ef cb be 1b d1 8c be
       -0.3512678 -0.094752155 -0.3983121 -0.27503285
000100 73 3a 09 bf e6 db f5 be 68 65 d4 be 8f 92 03 bf
       -0.5360481 -0.48019332 -0.41483617 -0.51395506
000110 1e cc d6 bd 52 73 b3 be 77 af 0d bf 7b bb aa be
       -0.10488151 -0.3504892 -0.55345863 -0.3334616
000120 38 0b 7d be db c1 a3 be 52 27 5a be 4d 0d 01 bf
       -0.24711311 -0.31983837 -0.21304062 -0.5041092
000130 4f 3c dc be a0 aa cb be 2b 21 02 bf da 5c d2 be
       -0.43014762 -0.39778614 -0.5083186 -0.41086465
000140 9f 9f 3d be 0e 94 08 be 49 7f 69 be 64 3a 1a be
       -0.18517922 -0.13337728 -0.22802462 -0.15061337
000150 33 d1 8c be e6 8d b5 be eb e8 41 be e3 d9 39 be
       -0.27503356 -0.35459822 -0.18936507 -0.18149523
000160 3f 88 52 be f5 c6 07 bf 00 5a 9b bd 98 d0 8f be
       -0.20559786 -0.5303796 -0.075855255 -0.28088832
000170 cf b6 d5 be 70 1c f6 be 91 93 ce be 96 36 ff bd
       -0.41741034 -0.4806857 -0.4034696 -0.12461583
000180 0f a2 cb be dc b1 e1 be e1 d3 a4 be d8 09 08 bf
       -0.39772078 -0.44081008 -0.321929 -0.5314002
000190 00 cb 1a bf 5c 40 a0 be e4 23 d6 be 80 c4 8a be
       -0.60466003 -0.31299102 -0.41824257 -0.27103043
0001a0 8c 65 dd be 9c 4d b7 be 26 d8 fb be 90 2e 93 be
       -0.43241537 -0.358014 -0.49188346 -0.28746462
0001b0 7e 19 05 3f 75 6b f7 be 20 36 e5 be e6 dd e5 be
       0.51992023 -0.4832417 -0.44767857 -0.44895858
0001c0 e5 9f ec be 5b 89 16 bf 01 7f ef be 3f fa 8e be
       -0.4621574 -0.5880334 -0.46776584 -0.27925298
0001d0 7c b9 e9 be 3b ee e2 be 77 87 fb be 75 07 dc be
       -0.45649326 -0.4432238 -0.4912679 -0.4297444
0001e0 30 21 10 bf 15 0b 17 3f e2 b4 e4 3e a1 7d c3 be
       -0.5630064 0.59001285 0.44669253 -0.38181785
0001f0 9f d6 df be b0 c2 dc be 3a 42 b7 be 17 9d dd be
       -0.4371843 -0.43117285 -0.35792714 -0.43283913
000200 ad 8e da be a4 90 8f be 4f 2f 0a bf 70 2b cd be
       -0.42686978 -0.2804004 -0.5397844 -0.40072203
000210 0b b9 a9 be b5 4b d0 be 25 83 a8 be d2 ee 14 bf
       -0.3314899 -0.4068276 -0.32912555 -0.5817691
000220 1d 15 dc be e7 a8 72 be 3f 60 e9 be 26 93 9d be
       -0.42984858 -0.23697244 -0.45581242 -0.30776328
000230 6e 8e cb be 19 d8 e9 be 5f 9c f8 be b2 dc 69 be
       -0.39757103 -0.45672682 -0.48556802 -0.22838095
000240 7f 61 c3 be 65 3f d9 be 61 3f 42 be 7d 53 da be
       -0.3816032 -0.4243118 -0.1896949 -0.42641822
000250 b7 38 6e bc a5 11 fb be de 6d f8 be f2 22 87 be
       -0.014539889 -0.490369 -0.48521322 -0.2639385
000260 f4 63 1b bf d8 43 03 bf c3 d5 b2 be 9d 46 d9 be
       -0.6069939 -0.51275396 -0.34928712 -0.42436686
000270 d2 a4 d5 be 10 11 a8 be df 32 3f bf 20 24 06 3f
       -0.4172731 -0.32825518 -0.74687 0.5239887
000280 7d 27 c8 be ee b9 0e bf a7 dc b1 be 7e b7 9a bd
       -0.39092627 -0.55752456 -0.34738657 -0.075545296
000290 26 81 9b be 03 20 05 bf 98 66 16 be 9d 09 cc be
       -0.3037197 -0.5200197 -0.14687574 -0.39851084
0002a0 c0 7e 48 be 90 a4 a9 be 89 78 e0 be 95 91 4b be
       -0.19579601 -0.33133364 -0.4384196 -0.19879754
0002b0 f1 59 18 3f a3 12 f5 be 59 f3 67 be ab 63 1a bf
       0.5951224 -0.4786578 -0.22651424 -0.6030833
0002c0 75 d9 b5 bd e1 e5 01 bf 8a d0 e7 be 24 26 0f bf
       -0.08879367 -0.5074139 -0.4527629 -0.5591757
0002d0 83 1c 7c be e5 fb eb be d7 58 a6 be 2f d5 02 3f
       -0.24620251 -0.46090618 -0.32489654 0.5110654
0002e0 cf 56 d8 be d3 8d eb be 28 27 0b 3d 6d 31 88 be
       -0.4225373 -0.4600664 0.03397289 -0.2660021
0002f0 6d 61 c1 bd 41 44 00 bf 3d b9 39 be 72 94 92 be
       -0.094424106 -0.5010415 -0.18137069 -0.2862888
000300 8d 73 73 be b5 09 03 bf a6 a6 c8 be 40 80 a0 be
       -0.23774548 -0.51186687 -0.39189643 -0.31347847
000310 ae 4c 02 bf c0 b3 fb bd 32 6d fa be b5 7c 28 bf
       -0.50898254 -0.12290144 -0.48911434 -0.6581529
000320 e1 07 b1 3e 04 d1 2e be 99 6d e9 bd 37 36 0f 3d
       0.34576324 -0.1707192 -0.11397857 0.034963813
000330 90 35 bf be 33 e7 54 be e2 e5 c2 3e ca 0b bb 3e
       -0.37345552 -0.2079132 0.38066012 0.36532432
000340 c6 97 ab 3e df 85 c1 3d 67 8a bb 3e 7e 11 1a 3e
       0.3351423 0.09449362 0.3662903 0.15045735
000350 1c 0b 56 3e 17 81 0e 3e 74 bf cf 3e 23 ad b7 3e
       0.20902675 0.13916431 0.40575755 0.3587428
000360 c9 36 18 bd 97 5d 95 3e b5 07 b2 3e f7 5d eb be
       -0.037161622 0.29172966 0.34771505 -0.45970127
000370 6a f2 0b 3d ad 81 56 3b 72 e3 b0 bd be 41 f2 3e
       0.03416673 0.0032731101 -0.08637132 0.47315782
000380 ab 61 76 3d e0 df 22 be dd cc a4 bd c6 b3 a3 3e
       0.060151737 -0.15905714 -0.08046887 0.31973094
000390 a6 c0 b1 3e 15 44 af be 7a 4d 18 be 66 89 66 3d
       0.34717292 -0.3423163 -0.14873305 0.056283377
0003a0 b7 c4 bd 3e 09 49 a6 3e 0b 66 b0 bd df 1a 32 3e
       0.37064144 0.32477596 -0.08613213 0.17393063
0003b0 66 77 89 3e e7 bf 84 3e cf 45 cc 3e 64 30 ca 3e
       0.26848906 0.2592766 0.3989701 0.39490044
0003c0 58 8b 5d bf cb 2c 24 be c4 be 54 be 0f 2f 7c be
       -0.86540747 -0.16032712 -0.20775896 -0.24627326
0003d0 ce a3 d2 3e 9e d7 d1 3d b3 ad 03 3e 45 ea 8b 3d
       0.41140598 0.10246204 0.1285923 0.06831793
0003e0 74 3f 3d 3e 62 88 8f 3c 7e 1e 79 3e c4 21 04 3e
       0.18481237 0.017521087 0.24328038 0.12903506
0003f0 64 bd a2 3e 68 3b 0f 3e c6 f6 04 3e 09 f6 8a 3e
       0.3178512 0.13987505 0.12984762 0.27140835

layer2.bias f4 [100]
000000 74 aa eb be b2 d7 32 3f bc a4 2c 3f 76 c8 27 3f
       -0.46028483 0.69860375 0.67438865 0.65540254
000010 ab c7 dd be 70 dd 1e bf 98 5b 16 bf a4 6e 05 bf
       -0.43316397 -0.62056637 -0.5873351 -0.5212195
000020 8b 00 22 bf 4e c1 2f 3f 0c d4 4c 3f 20 b4 32 3f
       -0.6328208 0.68654335 0.8001106 0.698061
000030 10 2c 1b bf a8 5d 3b 3f 18 63 2c bf 8f 22 4e 3f
       -0.6061411 0.73189783 -0.67338705 0.8052148
000040 a9 8f 59 3f 70 ab dc be ef cd 31 3f 18 e3 3c 3f
       0.84984833 -0.43099546 0.69454855 0.7378402
000050 3e 89 e2 bd 2b 97 86 be db 24 39 3f c4 26 27 3f
       -0.11061333 -0.26287207 0.7232186 0.65293527
000060 f0 1a 49 bf d0 a5 48 3f 49 14 57 3f 66 e7 26 bf
       -0.7855673 0.7837801 0.8401533 -0.65196836
000070 86 97 3a 3f 5c da 2e 3f 3b 2d 33 bf d0 ce 9b be
       0.72887456 0.6830194 -0.6999089 -0.30431223
000080 c3 f0 3b 3f ab 97 29 3f ec 13 d1 be c2 3c e2 be
       0.7341425 0.6624705 -0.40835512 -0.4418698
000090 da fd 07 bf 19 47 21 bf c1 dc 56 3f 1f 25 40 3f
       -0.5312172 -0.6299911 0.83930594 0.7505664
0000a0 38 92 38 3f 42 23 26 3f d7 cb 36 3f 09 cb 5e 3f
       0.7209811 0.6489755 0.71404785 0.8702856
0000b0 b6 38 b9 be a6 db 30 3f ad 34 c8 be 51 37 50 3f
       -0.3617608 0.69085157 -0.39102688 0.81334406
0000c0 3b 9a 92 be e4 95 0a bf 1f 5d 2f 3f d1 89 9d be
       -0.28633294 -0.54134965 0.68501467 -0.30769208
0000d0 76 bb 47 3f a2 77 28 3f d8 58 45 3f 3a d9 d3 be
       0.7802042 0.65807545 0.7708869 -0.41376668
0000e0 22 9d 43 3f a1 91 e3 be f6 e8 fa be 5b ed 0a bf
       0.7641164 -0.44447044 -0.4900586 -0.54268426
0000f0 bc ba 4b 3f 79 8d ef be 21 31 1a bf 7e a4 4b bf
       0.7958181 -0.46787623 -0.60231215 -0.7954787
000100 ed 96 23 3f 61 28 2d 3f a4 34 d4 be 09 36 c9 be
       0.6390217 0.6763974 -0.41446412 -0.39299038
000110 bc 9b 83 bb 4d 11 02 bf 8b 70 3e 3f c7 e1 f0 be
       -0.0040163677 -0.5080765 0.74390477 -0.47047254
000120 2b 6d 41 3f 10 2a 06 bf 06 44 e8 be f1 c2 f0 be
       0.755572 -0.5240793 -0.45364398 -0.47023728
000130 d5 2d e5 be 31 94 db be b5 7e 51 3f fa 77 37 3f
       -0.4476153 -0.428865 0.81833965 0.71667445
000140 2c 94 06 bf 45 0b 46 be f3 51 1b 3f 00 a2 35 3f
       -0.5256984 -0.19340236 0.6067192 0.7095032
000150 57 da 2c 3f c7 81 31 3f 73 da 30 3f 99 68 42 3f
       0.6752066 0.6933865 0.6908333 0.75940853
000160 a6 8d 47 3f 3d 18 26 bf 3b ef 04 bf 52 88 d9 be
       0.77950513 -0.64880735 -0.51927537 -0.42486817
000170 9c 40 26 3f 59 b6 17 bf 2b 6b 78 3d ec d6 11 bf
       0.64942336 -0.59262615 0.06064908 -0.5696857
000180 fe 1e 41 bf ff 24 4f bf 91 a6 4c 3f 59 51 49 bf
       -0.75437915 -0.80915827 0.7994166 -0.7863975

out1.weight f4 [3, 100]
000000 a9 d4 88 be 51 16 01 3f af bc 25 3f e0 72 24 3f
       -0.26724747 0.5042468 0.64741033 0.64237785
000010 6f 6f 64 be 98 1b 27 3f 61 1e 35 3f 3e a4 28 be
       -0.22308134 0.6527648 0.7074948 -0.16468903
000020 7b b8 18 be d4 8c 17 3f fb db 23 3f 3a d4 20 3f
       -0.14914124 0.5919926 0.6400754 0.6282383
000030 47 0f 99 be b1 30 23 3f b3 47 da be a7 24 27 3f
       -0.29894468 0.6374617 -0.42632827 0.652903
000040 97 89 21 3f eb 40 4c be 54 48 0c 3f 7e d1 fb 3e
       0.6310057 -0.19946639 0.54797864 0.49183267
000050 d9 72 b9 3d 88 1f c4 3e 43 6e 20 3f 6a 9b 09 3f
       0.090551086 0.38305306 0.62668246 0.5375277
000060 01 dd ff be c7 a5 19 3f 58 66 0b 3f d1 f2 a1 bd
       -0.499733 0.6001858 0.5445304 -0.07907642
000070 7c 51 1a 3f ae c1 02 3f 93 37 14 3f 0d 9e f1 be
       0.60280585 0.5107678 0.578973 -0.47190896
000080 a0 50 2a 3f 48 25 11 3f 99 7e 04 3f 93 6d 2b be
       0.66529274 0.5669751 0.5175567 -0.16741018
000090 a4 a8 51 be a2 5d 18 3f a0 2f 1f 3f 5d 05 1d 3f
       -0.20474488 0.5951787 0.62182045 0.6133631
0000a0 2e 6d 20 3f 25 2e 26 3f 9d 32 14 3f 28 8a 2a 3f
       0.62666595 0.6491416 0.5788973 0.6661706
0000b0 cd 36 0f be 63 4d 0d 3f 8b 10 48 3e 55 1a 24 3f
       -0.13985749 0.5519621 0.1953756 0.6410268
0000c0 99 3f 19 bf a4 8c af be 11 a1 15 3f 09 92 5f bd
       -0.5986267 -0.34286988 0.5844889 -0.05458263
0000d0 0b 1b 28 3f 1f a1 0e 3f 1a 9b 04 3f dd de 8b be
       0.65666264 0.557146 0.51799166 -0.2731847
0000e0 25 6c 29 3f 90 1c c7 3e e7 90 ac be 6a 75 15 be
       0.6618064 0.3888898 -0.33704302 -0.14595571
0000f0 88 b4 10 3f d0 bc 0b bf 10 7b 42 3f 4c ac 03 bf
       0.5652547 -0.5458498 0.7596903 -0.5143478
000100 58 8a 18 3f 77 5e 12 3f ee 28 dd 3d 44 1f 0e 3f
       0.59586096 0.5717539 0.10798822 0.5551646
000110 0c 06 18 3d 4f b4 08 bf 1f f9 21 3f 42 95 9f be
       0.03711514 -0.5340013 0.63270754 -0.31168562
000120 41 50 21 3f dc 17 c4 be 59 a1 ea 3e 53 94 00 3f
       0.6301308 -0.38299453 0.45826223 0.50226325
000130 e8 08 ca be c4 58 34 be f7 ab 07 3f 29 30 19 3f
       -0.3945992 -0.17611986 0.5299677 0.5983911
000140 69 c3 c6 be 23 60 fa 3d e9 8e 09 3f 54 11 08 3f
       -0.3882096 0.12225368 0.5373369 0.5315144
000150 9f ef 0d 3f 87 a8 26 3f 5d 42 14 3f 6c ec 17 3f
       0.5544376 0.651009 0.5791376 0.59345126
000160 88 ee fe 3e fa 25 3d be 3e 81 39 3e b6 74 84 3e
       0.4979136 -0.18471518 0.18115708 0.25870293
000170 10 0b 01 3f ef 9a a2 3e 5a 7c 16 3d 2a 26 a6 be
       0.50407505 0.3175883 0.036739685 -0.32450992
000180 58 9c b7 be 45 59 11 bf 1b 73 16 3f d5 19 b0 3e
       -0.35861468 -0.5677684 0.58769387 0.34394708
000190 36 31 00 3d ed c9 c3 3e 30 a7 a8 3e 86 9d a2 3e
       0.03129693 0.38239995 0.32940054 0.31760806
0001a0 db 71 60 bd eb 5c 09 3f 99 bd bc 3e e5 75 a7 bd
       -0.05479608 0.53657407 0.36863402 -0.081767835
0001b0 d8 42 f5 3c 86 56 be 3e 71 72 c8 3e aa 2a 86 3e
       0.0299391 0.37175387 0.39149812 0.26204425
0001c0 2b 6d 3a 3e be 6b cd 3e d6 0a 12 3e 11 cf 6a 3e
       0.18205707 0.40121263 0.14261946 0.22930552
0001d0 b3 3f c3 3e 13 9d c2 3d a7 b4 92 3e 3e ba a6 3e
       0.38134536 0.09502616 0.28653452 0.32563967
0001e0 c6 17 d6 be 50 07 ef 3e db 09 a3 3e e6 89 bf 3e
       -0.41815013 0.46685266 0.31843457 0.37409896
0001f0 75 b3 81 be 5b a4 c7 3e 3c 72 b2 3e 53 3e ab 3e
       -0.25332227 0.3899258 0.3485278 0.33445987
000200 e0 11 cd 3e 59 c9 49 3e 70 f5 c5 3e 83 9a a0 bd
       0.400527 0.19705714 0.38663816 -0.07841971
000210 72 7f c8 3e d4 7c b7 3e cc f9 dc 3e e8 85 a0 bc
       0.39159733 0.35837424 0.4315933 -0.019595101
000220 c0 ad f4 be b3 55 f4 3e 2b 73 cf 3e 90 00 b5 3e
       -0.4778881 0.47721633 0.40517554 0.35351992
000230 0a 4b 9a 3e a9 6d bf 3e 58 a5 c6 3e d2 17 c2 3e
       0.30135375 0.37388352 0.38798022 0.37908798
000240 7b 55 c9 3c 9f 7b 8a 3e 19 91 6f 3e 05 d3 ae 3e
       0.024576893 0.2704744 0.23395194 0.3414537
000250 c2 17 25 be 40 c8 16 be 49 1c aa 3e a4 af a8 be
       -0.16122344 -0.14724827 0.33224705 -0.32946503
000260 0a c6 a5 3e 68 8e ce 3e 5f 3f 84 3e 9b 5e 60 bd
       0.32377654 0.40343022 0.25829598 -0.054777723
000270 04 14 8d 3e 4d b3 d4 3e 3a f2 17 be f4 79 6b be
       0.27554333 0.41543046 -0.14838496 -0.2299574
000280 b5 14 d9 3e d9 36 49 bd 37 35 cb bd 63 fb de be
       0.4239861 -0.049124572 -0.09922259 -0.43551168
000290 99 d4 7e 3e 6a 64 a2 3e c2 67 b7 3e 63 9a d4 3e
       0.24885787 0.31717235 0.35821348 0.41524038
0002a0 0c f2 5e be 9d 46 9b be 4a f0 d6 3e dd 72 36 be
       -0.21772021 -0.3032731 0.419802 -0.17817254
0002b0 04 83 d3 3e 96 c4 e6 bd 34 44 01 3f e0 f9 f5 3e
       0.41310894 -0.112679645 0.50494695 0.48042202
0002c0 c1 1a 49 be 94 ed b3 3d 3a 3d 96 3e 4d 54 88 3e
       -0.19639112 0.08785549 0.29343587 0.26626816
0002d0 f1 fd 39 bd cc a6 22 3e e8 fb 6b 3e 07 37 96 3e
       -0.045408193 0.1588394 0.23045313 0.29338858
0002e0 ab 72 d3 3e 14 40 c5 3e 17 bb bc 3e 09 80 b0 3e
       0.41298422 0.3852545 0.36861488 0.34472683
0002f0 65 bc 9b 3e 82 b6 7a be 8c 2f 7d 3e e3 cc 70 be
       0.3041717 -0.24483684 0.24725169 -0.23515658
000300 27 d5 97 3e 42 cc c7 3e 3f 60 5a be 5e 59 c8 bd
       0.2965481 0.39023024 -0.21325777 -0.097826704
000310 13 13 62 be 53 64 bd be de 11 cd 3e 9d bb d1 3e
       -0.22077589 -0.36990604 0.40052694 0.4096345
000320 5c 83 a9 3e 34 50 35 3e 7f e3 72 3e 65 29 2b 3e
       0.33108032 0.17706376 0.23719595 0.1671501
000330 bb 37 07 3e 85 d0 c9 3e fb bf 33 3e cb 82 ce 3d
       0.13204853 0.394169 0.17553703 0.100835405
000340 a3 73 8d 3e 7f aa 8a 3e 0d 87 84 3e a5 ee b7 3d
       0.27627286 0.27083203 0.25884286 0.08981065
000350 34 a6 04 3f e8 e3 58 3e 88 90 c6 be 82 95 80 3e
       0.51816106 0.2118069 -0.38782144 0.25114065
000360 0f 1c 99 3e df 66 55 3e 6a 74 13 3e e1 64 47 3e
       0.2990422 0.20840023 0.14399877 0.19472076
000370 e8 5e 7c be 71 58 01 3f e4 a5 94 3e 7d e6 05 3e
       -0.24645579 0.50525576 0.29032815 0.13076206
000380 c3 3c 8f be 4f d1 c4 3d 49 c0 8f 3e 30 5f b3 3d
       -0.27976045 0.09610235 0.2807639 0.0875839
000390 9f b3 17 3e 2d 10 d1 3d 88 8e 58 3e c1 f2 ae 3e
       0.14814614 0.102081634 0.21148121 0.34169582
0003a0 a4 c1 82 3e ee a6 3b 3e 86 17 23 3f 49 fd 19 be
       0.2553836 0.18325397 0.6370777 -0.15038027
0003b0 bf de 14 bf 6c d0 88 3e 4c 5b 8d 3e 65 f2 c5 3d
       -0.58152384 0.26721513 0.27608716 0.09665374
0003c0 57 96 86 3e 72 e9 89 3e 52 3d 77 3e 9c 8e 96 3e
       0.26286575 0.26935917 0.24144486 0.29405677
0003d0 19 3a bf 3b df 26 82 3e 9c f0 d3 3d 91 91 8f 3e
       0.005835783 0.2542028 0.10348627 0.28040746
0003e0 f6 1d 70 3e f4 f3 82 bc 57 d9 86 3e f0 44 05 3e
       0.23448929 -0.015985467 0.26337692 0.13014579
0003f0 b8 d7 be 3d 3a 4b ed 3d e9 b0 7f 3e 3b ff ad bc
       0.09318489 0.11586614 0.2496983 -0.021239867

out1.bias f4 [3]
000000 f3 f9 9f 3f c9 23 7f 3f da 4a 86 3f
       1.2498153 0.9966398 1.0491593

out2.weight f4 [3, 100]
000000 da df 96 bd f1 bd 73 3e 3b e7 a9 3e 6f 0d bc 3e
       -0.07366915 0.23802926 0.33184227 0.36729
000010 23 52 00 be ed e0 b5 3e 60 17 a6 3e 8a a2 07 be
       -0.12531333 0.35523167 0.3243971 -0.13245597
000020 3f c1 65 3d 9b 17 cd 3e 3b 10 e4 3e 53 00 6d 3e
       0.056092497 0.40057072 0.44543633 0.23144655
000030 0b e7 02 3e 2c 9e da 3e c9 f8 5f be 95 6c c3 3e
       0.12783448 0.426988 -0.21872248 0.3816878
000040 24 24 da 3e 9a 39 c3 bd 73 16 c4 3e 4a 22 96 3e
       0.42605698 -0.09532471 0.38298377 0.29323035
000050 eb e2 6e be 49 3f 17 3f aa 26 d2 3e 05 ee c9 3e
       -0.2332875 0.5908094 0.41045123 0.39439407
000060 ed 57 cd be 73 d7 d5 3e 79 79 de 3e 0d ab 9a 3d
       -0.40106145 0.41765937 0.4345205 0.075521566
000070 67 b2 8c 3e 16 99 be 3e 40 f6 a2 3e 6b 02 20 be
       0.2747986 0.3722617 0.318285 -0.15625922
000080 be 75 c0 3e 3e 94 b8 3e 4f b9 09 3f 23 ce 2a be
       0.3758983 0.360506 0.53798383 -0.16680197
000090 01 b8 c5 be 2e 72 c4 3e 51 ae b8 3e 0b 49 d8 3e
       -0.38616946 0.38368362 0.36070493 0.42243227
0000a0 12 11 bf 3e 03 2e bb 3e 36 18 bd 3e f3 5f e7 3e
       0.3731771 0.36558542 0.36932534 0.4519039
0000b0 bf ef aa bd 81 62 d9 3e aa 69 b1 3d 63 90 cf 3e
       -0.08346509 0.42457965 0.08662732 0.40539846
0000c0 4f 30 4b be 35 d0 50 be 3e ae d0 3e 0b 82 db bd
       -0.19842647 -0.20391925 0.40757936 -0.10718163
0000d0 05 63 b4 3e ae 54 c7 3e c3 20 d1 3e 96 d0 c8 bd
       0.35231796 0.38931793 0.40845308 -0.098054096
0000e0 c1 6e d3 3e f7 a4 11 3f 3b 68 d8 bd bc 39 d0 bd
       0.41295436 0.5689234 -0.105667554 -0.10167262
0000f0 06 fa d2 3e d4 f8 60 be 0d 8d 88 be 97 57 d3 be
       0.41206378 -0.2196992 -0.26670113 -0.41277763
000100 b0 10 ae 3e ca 57 7a 3e 07 72 1d 3d 2f 77 16 3f
       0.33997107 0.24447551 0.038438823 0.5877561
000110 d4 12 43 be f0 5a 9a be 12 d4 d6 3e 0e 6d 53 be
       -0.19050151 -0.30147505 0.41958672 -0.2064707
000120 98 18 de 3e 55 04 5e be 9e 33 f7 3e 87 22 01 3f
       0.4337814 -0.2168134 0.48281568 0.5044331
000130 f4 06 25 be 5c cc cd bd 42 e6 df 3e 61 6d d0 3e
       -0.16115934 -0.10048744 0.4373036 0.4070845
000140 ff 55 0a be 48 da 18 3e 96 26 a3 3e 79 40 c6 3e
       -0.13509367 0.14927018 0.31865376 0.38721064
000150 b5 3c d6 3e 88 82 d7 3e fc 90 95 3e 5e 27 ca 3e
       0.4184319 0.42091775 0.29212177 0.3948316
000160 d0 c4 e2 3e 52 cf be be c4 6e aa 3e 76 b2 c5 be
       0.4429078 -0.37267548 0.33287632 -0.38612717
000170 93 f2 b0 3e 21 82 1e 3b cf 23 22 be 9b fc 4e be
       0.3456007 0.002418645 -0.15833972 -0.20213549
000180 f8 e6 ee be c2 64 cb be 90 dd bb 3e 3b 76 a6 3e
       -0.4666059 -0.3972531 0.36692476 0.32512078
000190 af 7a 45 3d 3d f4 90 3e 39 a2 79 3e e4 b9 8e 3e
       0.048212703 0.2831134 0.2437829 0.27876198
0001a0 37 eb 5d 3c 15 ba e6 3e 09 1f 9d 3e 2c 1f a1 3d
       0.013544849 0.45063844 0.3068774 0.07867274
0001b0 7b 05 dd 3d 6b 1a 5f 3e 33 f4 ae 3e e8 91 93 3e
       0.10792061 0.21787421 0.34170684 0.28822255
0001c0 3e 9c 6d 3e b2 99 6d 3e 95 e2 cf bd 7b ba ae 3e
       0.23204133 0.23203161 -0.10150639 0.34126648
0001d0 da b9 a5 3e dc ad bc 3d 2b 78 9e 3e f5 99 b3 3e
       0.32368356 0.092128485 0.30951056 0.35078397
0001e0 5a 29 bb be d2 66 0f 3f 7f a1 bb 3e b6 ac 66 3e
       -0.36554986 0.56016266 0.3664665 0.22526821
0001f0 73 77 a3 be c2 cf 61 3e 31 2d be 3e 84 4c 2d 3e
       -0.3192707 0.2205191 0.37143853 0.1692372
000200 ca 5d b3 3e e2 aa 4d bd 47 c3 d2 3e 9e 2c 0f 3d
       0.35032493 -0.050211795 0.4116461 0.03495466
000210 04 07 b1 3e 02 ec 9d 3e 4b 76 f5 3e 8f 6a 84 bd
       0.34575665 0.30844122 0.47941813 -0.06465637
000220 0d b7 17 bf e5 5e c7 3e c9 a1 b9 3e 8c 36 b1 3e
       -0.5926369 0.38939586 0.36256245 0.34611928
000230 7b de 68 3e cc e9 47 3e ca 0b a6 3e 0d 98 bd 3e
       0.2274112 0.1952278 0.3243087 0.37030068
000240 e7 92 2d 3d ae fd 9f 3e ca 67 4c 3d 80 60 bf 3e
       0.042376425 0.3124823 0.04990367 0.3737831
000250 b9 63 24 3e 6f 8f be bd 10 b2 8d 3e a5 60 e3 bd
       0.16053666 -0.093047015 0.27674913 -0.11102418
000260 47 1b 9b 3e dd 4e 95 3e 7c 3f ba 3e f0 5c 11 be
       0.30294248 0.2916173 0.3637656 -0.14195609
000270 2b 22 92 3e 3a 32 07 3f c6 94 80 bd 89 08 03 be
       0.28541693 0.52811015 -0.06278376 -0.12796225
000280 10 50 94 3e a9 2c da bd f6 90 81 be b5 ff 9a be
       0.28967333 -0.106530495 -0.2530591 -0.30273214
000290 6c a9 87 3e fe d4 b1 3e 01 3f 78 3d f5 88 15 3f
       0.26496446 0.34732813 0.06060696 0.58412105
0002a0 87 a5 52 be 87 2b 39 be 04 f5 88 3e 8f 1b 6b 3c
       -0.20570956 -0.1808301 0.26749432 0.014349832
0002b0 5a 0d 47 3e 8f dd f4 bc 96 f8 fa 3e 8e 2a 08 3f
       0.19438687 -0.029890804 0.4901778 0.53189933
0002c0 05 80 b1 bd da 57 9d 3d 35 5c b7 3e ab 05 2c 3e
       -0.08666996 0.07682772 0.35812536 0.16799037
0002d0 5a 2b 4b bc 96 f8 87 3e 41 55 0b 3e 2a a6 3e 3e
       -0.012400473 0.26556844 0.1360674 0.18618074
0002e0 c6 1d 51 3e 0f 2a 68 3e 34 76 3f 3e 92 24 bb 3e
       0.20421514 0.22672294 0.18697435 0.36551338
0002f0 c8 75 80 3e 9c cf ee bd 48 b7 74 3e 3a aa e7 be
       0.2508986 -0.11660692 0.23898041 -0.4524706
000300 bb 01 26 3e 2c 24 96 3d 99 1f e7 bd f9 ab e1 bb
       0.16211598 0.07331118 -0.11285324 -0.006886956
000310 4a 03 c4 be d6 d5 b6 be 9f bd 9a 3e c5 b7 8a 3e
       -0.3828376 -0.3571002 0.30222794 0.2709333
000320 84 13 86 3d 14 7e 16 3e d8 7a 84 3e 8d b0 4d 3e
       0.06546691 0.14696532 0.25874972 0.2008688
000330 48 61 f1 3c 44 2b a2 3e 1d 34 55 3e 04 86 d1 bd
       0.029465333 0.31673634 0.20820661 -0.102306396
000340 43 57 28 3c 4e eb 70 3e 91 f2 4b 3e bc 3c 42 3e
       0.010274711 0.23527262 0.1991675 0.18968481
000350 13 23 72 3e 0e 9c f4 3d 40 05 f2 be ed 0a 2f 3e
       0.23646192 0.119438276 -0.4726963 0.17094012
000360 2e 32 71 3e b3 be 66 bd 89 1b 59 3e e5 42 7f 3e
       0.23554298 -0.05633421 0.2120191 0.24927862
000370 f9 9d cc be fa 50 11 3f e8 ec bb 3d e4 7b c0 3d
       -0.39964274 0.56764185 0.09176046 0.0939863
000380 bd 6a 87 be fd 67 84 3e 88 87 91 3e 60 57 0f be
       -0.26448622 0.25860587 0.28423715 -0.13998175
000390 a4 c1 24 3e 8e 79 3d 3e 48 78 23 3e d0 29 77 3e
       0.16089493 0.185034 0.15963852 0.24137044
0003a0 6b 49 45 3e f2 f9 3a 3e f2 e9 31 3f 75 c6 52 bd
       0.19266288 0.18259409 0.694976 -0.051458795
0003b0 85 f6 19 bf 2c 49 71 3e f8 0c 52 3e 35 a4 32 3e
       -0.60141784 0.23563069 0.2051276 0.17445453
0003c0 4d f5 77 3e b0 1b f8 3d e2 7d 1d 3e 37 5e 10 3e
       0.24214669 0.12114656 0.15380052 0.1409844
0003d0 7a 4b f3 bd b4 be 6c 3e 19 15 54 3c e7 78 b2 3d
       -0.118796304 0.23119622 0.012944483 0.087144665
0003e0 ac b6 67 3e 9e e9 f5 bd 11 39 dc 3d be 0e 20 be
       0.22628278 -0.120074496 0.10753072 -0.15630624
0003f0 b7 d5 89 3e f3 8a 4b 3e f0 5f 6f 3e bf 56 a1 bc
       0.26920864 0.19877224 0.23376441 -0.019694684

out2.bias f4 [3]
000000 48 f3 8d 3f 82 33 91 3f b6 e9 70 3f
       1.1089869 1.1343844 0.94106615
