Fibrosis_EDA_model4.bin (torch, 93381 bytes, 8 tensors)

layer1.weight f4 [200, 9]
0.4777073 0.505147 -0.049362898 0.040549107 -0.37561512 -0.19237946 -0.21607557 -0.18186142
-0.21751207 -0.23091735 0.49343678 0.021472912 0.30972472 0.034871362 0.5156615 0.66860515
-0.062476277 0.08115959 0.015696453 0.0062396335 0.79721946 -0.10739311 -0.121262655 0.012173788
0.47604367 -0.34703696 0.052009147 0.32211527 -0.10699678 0.5362914 -0.3121716 0.2544421
0.36203822 0.2826636 -0.10724066 0.55826205 -0.043593403 0.37551764 0.33176702 0.08439584
-0.01151323 0.051830925 0.20214303 -0.4657174 -0.4920274 -0.18174599 0.23381731 0.46384242
-0.40289214 -0.12621753 0.33380416 0.7241791 0.5335265 -0.1839839 -0.5732993 -0.08336148
-0.070028394 -0.15520452 0.45621204 -0.11599489 -0.053900674 -0.19661103 0.053449094 0.12520832
0.25976688 -0.26858154 0.18595992 0.34890094 0.47204503 0.25021094 0.7312614 0.47475815
-0.06736887 -0.15522794 -0.19366996 -0.123202294 -0.25222382 -0.38891447 -0.34231314 -0.5589183
-0.57108325 0.64416134 -0.027725179 -0.004601801 -0.12299894 0.1621044 0.3507757 0.1261825
0.1308508 0.14217433 -0.44823316 0.42420498 0.46536702 0.009757502 0.14339554 0.5022102
0.7263983 0.19233042 0.43707353 -0.21067652 0.2226389 0.21802516 -0.06594168 -0.5100229
-0.06264653 0.27973866 -0.019387774 -0.33818957 0.0060176444 0.43591294 0.26254636 -0.1841303
0.2445413 0.07169747 -0.10138494 0.12004457 -0.11591024 -0.35469252 0.7629311 -0.23362975
0.10063188 0.058350213 0.5103419 0.53906363 -0.15728164 0.8482928 -0.5445762 0.080767885
0.055399314 -0.59893155 -0.056219734 0.55903184 -0.27456415 0.24272248 0.4991621 -0.5528955
0.08912597 -0.15886904 -0.12347602 -0.005129577 0.05114607 0.27301812 0.017502513 -0.07985671
0.6615291 0.57214147 0.3395002 0.17354125 -0.15707853 0.42953593 0.70501107 0.40054026
0.33539194 -0.38914782 0.56705344 0.27042207 0.112184085 -0.006488923 0.2684275 0.1608984
0.28416422 0.36400393 -0.11893072 0.23811863 -0.25252283 -0.5647146 0.0678812 0.21504699
0.603332 0.4482834 0.5330976 0.2964467 0.52980125 0.55766976 0.28592283 0.5323554
0.80127 0.33589387 0.21911018 0.6694676 0.23855416 0.27862382 0.4539183 -0.14016801
0.4355903 0.5126302 0.49202567 0.6825653 0.22240332 -0.0228185 0.20902045 0.35488835
-0.22388472 -0.12772097 -0.2485748 0.2881384 -0.026051814 -0.62395483 0.06491893 0.037936177
-0.14214201 -0.28049523 0.16094187 0.4213455 0.638322 0.76904666 0.045654748 0.52753437
0.48971325 0.13127266 0.10893425 -0.21408726 -0.112029105 0.117946416 0.13634618 -0.036175944
-0.115975395 0.9733935 0.21296382 0.29152703 0.36987296 0.7008532 0.34306613 0.44095296
0.5634055 -0.26756904 0.27328572 0.1787514 0.22319508 -0.21043386 0.18474284 0.021946842
0.35844335 0.31994188 0.42934278 0.2683532 -0.13816427 0.29938772 -0.7445212 0.4373871
0.2870494 0.0067225676 -0.51091254 0.10624361 0.58793455 0.3638432 0.30953535 0.38037962
0.83881056 0.24911197 0.26827583 0.69616497 -0.30152422 -0.3617036 0.0931186 0.53065556
00000000: 0d96 f43e 5051 013f c030 4abd d216 263d
00000010: a050 c0be 1fff 44be ea42 5dbe e139 3abe
00000020: 7cbb 5ebe 9975 6cbe bfa3 fc3e f6e7 af3c
00000030: 3d94 9e3e 46d5 0e3d 6402 043f b529 2b3f
00000040: 20e7 7fbd 0037 a63d d995 803c d775 cc3b
00000050: 9316 4c3f ebf0 dbbd 8e58 f8bd 9174 473c
00000060: ffbb f33e d4ae b1be 8b07 553d 4bec a43e
00000070: 2121 dbbd 654a 093f f5d4 9fbe 3c46 823e
00000080: 135d b93e 49b9 903e fea0 dbbd 43ea 0e3f
00000090: ff8e 32bd d943 c03e 5edd a93e bad7 ac3d
000000a0: fda1 3cbc aa4c 543d 95fe 4e3e 8372 eebe
000000b0: 04eb fbbe 9f1b 3abe ce6d 6f3e c17c ed3e
000000c0: e147 cebe 2b3f 01be 61e8 aa3e cd63 393f
000000d0: 3195 083f 4766 3cbe bec3 12bf 6cb9 aabd
000000e0: 0c6b 8fbd efed 1ebe a094 e93e bb8e edbd
000000f0: f4c6 5cbd 6754 49be 70ed 5a3d 9c36 003e
00000100: 2a00 853e 8583 89be 476c 3e3e 25a3 b23e
00000110: e3af f13e a61b 803e f233 3b3f 8013 f33e
00000120: b1f8 89bd 13f4 1ebe 6b51 46be 7c51 fcbd
00000130: 7b23 81be cc1f c7be ab43 afbe 4515 0fbf
00000140: 8332 12bf c2e7 243f ea1f e3bc b4ca 96bb
00000150: dee6 fbbd b2fe 253e df98 b33e fc35 013e
00000160: c1fd 053e 2696 113e d17e e5be 6531 d93e
00000170: 9644 ee3e eedd 1f3c 48d6 123e d990 003f
00000180: 3df5 393f 44f2 443e 1ac8 df3e 96bb 57be
00000190: 74fb 633e fd41 5f3e 6e0c 87bd dc90 02bf
000001a0: d34c 80bd e839 8f3e 1cd3 9ebc 2f27 adbe
000001b0: a92f c53b fb2f df3e 7a6c 863e a78c 3cbe
000001c0: 0969 7a3e 20d6 923d e8a2 cfbd edd9 f53d
000001d0: 5962 edbd 429a b5be 744f 433f a33c 6fbe
000001e0: 1618 ce3d a200 6f3d c4a5 023f 1300 0a3f
000001f0: 700e 21be b829 593f 5969 0bbf a269 a53d
00000200: 64ea 623d 9453 19bf aa46 66bd b61c 0f3f
00000210: ac93 8cbe 3e8c 783e 2d92 ff3e 8f8a 0dbf
00000220: ad87 b63d 91ae 22be ffe0 fcbd 0316 a8bb
00000230: 8b7e 513d 08c9 8b3e 6e61 8f3c ea8b a3bd
00000240: f959 293f dd77 123f f8d2 ad3e ccb4 313e
00000250: 32d9 20be 22ec db3e 9b7b 343f 9d13 cd3e
00000260: 7eb8 ab3e 623e c7be 6a2a 113f c374 8a3e
00000270: c5c0 e53d 08a1 d4bb 546f 893e 8dc2 243e
00000280: f97d 913e b95e ba3e f391 f3bd 5fd5 733e
00000290: ac4a 81be 2391 10bf 4c05 8b3d 4735 5c3e
000002a0: f773 1a3f 6785 e53e 1679 083f ddc7 973e
000002b0: 0ea1 073f 72c3 0e3f 7a64 923e 7248 083f
000002c0: 0820 4d3f 48fa ab3e 6b5e 603e 3b62 2b3f
000002d0: 8b47 743e c8a7 8e3e fb67 e83e 3488 0fbe
000002e0: b105 df3e bc3b 033f caea fb3e 99bc 2e3f
000002f0: b2bd 633e dded babc 7509 563e edb3 b53e
00000300: 0942 65be 49c9 02be 648a 7ebe e086 933e
00000310: 9d6a d5bc 81bb 1fbf 37f4 843d f762 1b3d
00000320: ad8d 11be 129d 8fbe f2cd 243e 99ba d73e
00000330: 1269 233f 3ee0 443f 7900 3b3d 7e0c 073f
00000340: b2bb fa3e 576c 063e ec18 df3d b139 5bbe
00000350: 846f e5bd e48d f13d 559e 0b3e 3a2d 14bd
00000360: 8284 edbd 5130 793f 3013 5a3e 0843 953e
00000370: fd5f bd3e 1e6b 333f 5da6 af3e 96c4 e13e
00000380: 583b 103f cffe 88be 1bec 8b3e 9b0a 373e
00000390: 408d 643e f97b 57be 3a2d 3d3e ddc9 b33c
000003a0: e385 b73e 6ccf a33e d1d2 db3e 9765 893e
000003b0: ef7a 0dbe 5949 993e f198 3ebf 34f1 df3e
000003c0: 24f8 923e fc48 dc3b 2acb 02bf 4096 d93d
000003d0: e182 163f a849 ba3e 6b7b 9e3e 1ec1 c23e
000003e0: 4abc 563f 3517 7f3e 735b 893e de37 323f
000003f0: 6261 9abe 3731 b9be f7b4 be3d 0bd9 073f

layer1.bias f4 [200]
-0.059112933 0.056592222 -0.41296533 0.33122054 -0.42970118 0.46654618 0.28928465 0.78576964
-0.2755972 0.10758335 0.6510137 -0.24716331 -0.044968747 0.048152313 0.2188472 -0.14093241
0.6130296 0.72167116 0.7000524 0.8126658 0.7964222 -0.1447056 0.45869136 0.08327668
0.32922566 0.1924995 -0.08053285 0.8180829 0.25952175 -0.95004463 0.31709814 0.6640572
-0.37684453 -0.3905616 0.18000075 -0.9512262 0.7790811 -0.725518 -0.6928502 -0.8648831
0.35365972 -0.37610024 -0.03853556 -0.8968996 -0.44311786 0.674546 0.26993454 -0.16260122
-0.2122226 0.20484443 0.47683823 0.08327467 0.71606994 0.6465071 0.49197072 0.67592996
0.8310728 0.49115494 0.1395231 -0.07606118 0.64693993 -0.061778583 -0.06852473 0.10168029
0.27024442 0.43181655 0.10909905 0.07319387 -0.017446775 -0.32684115 0.55997014 0.10710087
0.5464496 0.277911 -0.19000553 -0.09808468 0.09062986 0.452278 0.13046691 0.07901959
0.2457058 -0.14979 0.42758575 0.30416292 0.11539241 0.60851765 -0.6543194 0.102837645
0.53856725 0.6418427 0.30993158 0.76032263 0.48573294 0.6127186 0.44469556 0.092330456
0.3276905 0.05888612 -0.38047767 -0.86743885 0.26365417 0.1076383 0.3636545 0.16931812
-0.047562562 0.7556817 0.7531086 -0.95786375 0.2985552 -0.12393554 0.77887124 0.33404276
0.72107947 0.72430533 0.030395076 0.14172907 0.6720835 0.4829311 -0.09021324 -0.6665038
-0.06934795 0.4070434 -0.8402333 0.7014767 -0.25416544 0.5319599 0.33443424 -0.10358678
0.00804694 0.309811 0.8271893 -0.1619025 0.44779104 -1.1365815 0.3942442 0.7181104
0.7022182 0.31948927 -0.15265656 0.5818196 -0.7460302 0.2951189 0.31963083 0.12546977
0.28578 0.3551869 0.68114084 0.24121594 -0.41574764 0.23831163 0.6593145 0.533346
0.4422247 -0.2496874 -0.25705978 0.64902383 0.22872408 0.503805 0.47809872 -0.49308687
-0.38128847 -0.35211396 0.5220998 0.5277756 0.70782846 0.33713102 0.46849513 -0.12568367
0.46432412 0.50480694 0.40945885 0.5301232 0.048356034 0.5464707 0.15366548 0.42737606
0.53764176 0.32563215 0.19925582 0.18710722 -0.0022635257 0.5976295 -0.12191813 -0.034467142
0.33163774 0.77017623 -0.034600858 0.4852818 -0.53340065 0.3724283 0.008950972 -0.4235724
0.28306592 0.013698623 0.057326607 0.69591194 -0.35001564 0.17410867 0.027408767 0.20215723
00000000: 6720 72bd 3fcd 673d 3170 d3be bd95 a93e
00000010: cb01 dcbe 24df ee3e 1e1d 943e 3328 493f
00000020: 141b 8dbe a954 dc3d d5a8 263f 6118 7dbe
00000030: 2631 38bd 5c3b 453d 7b19 603e 9650 10be
00000040: 82ef 1c3f 71bf 383f a236 333f de0a 503f
00000050: 53e2 4b3f b42d 14be 98d9 ea3e f78c aa3d
00000060: 4490 a83e 971e 453e 68ee a4bd e26d 513f
00000070: 09e0 843e 2036 73bf b05a a23e a7ff 293f
00000080: c4f1 c0be b1f7 c7be 1e52 383e 8f83 73bf
00000090: dc71 473f 8cbb 39bf a15e 31bf fb68 5dbf
000000a0: e312 b53e 3690 c0be 77d7 1dbd 369b 65bf
000000b0: 58e0 e2be 0caf 2c3f dc34 8a3e ef80 26be
000000c0: e250 59be bdc2 513e 2424 f43e e98b aa3d
000000d0: 5c50 373f 7d81 253f 96e3 fb3e bf09 2d3f
000000e0: 30c1 543f a978 fb3e 25df 0e3e f7c5 9bbd
000000f0: db9d 253f 8a0b 7dbd b256 8cbd c23d d03d
00000100: 7a5d 8a3e 0f17 dd3e 536f df3d abe6 953d
00000110: 8aec 8ebc b957 a7be 345a 0f3f b357 db3d
00000120: 1fe4 0b3f 5a4a 8e3e cf90 42be 9fe0 c8bd
00000130: 269c b93d fb90 e73e 1e99 053e 06d5 a13d
00000140: 4d9a 7b3e 8d62 19be 85ec da3e 3ebb 9b3e
00000150: db52 ec3d d0c7 1b3f 7a81 27bf 8b9c d23d
00000160: 8bdf 093f ce4f 243f 5aaf 9e3e 81a4 423f
00000170: fdb1 f83e 20db 1c3f 23af e33e c017 bd3d
00000180: 0dc7 a73e 9232 713d f8cd c2be 7910 5ebf
00000190: aefd 863e 7871 dc3d ec30 ba3e bb61 2d3e
000001a0: f6d0 42bd 5b74 413f bacb 403f 8f36 75bf
000001b0: 3adc 983e ebd1 fdbd 1b64 473f a707 ab3e
000001c0: aa98 383f 136c 393f 18ff f83c 6d21 113e
000001d0: aa0d 2c3f bf42 f73e b8c1 b8bd fe9f 2abf
000001e0: 4c06 8ebd fe67 d03e 8819 57bf fa93 333f
000001f0: f921 82be 862e 083f f73a ab3e 4e25 d4bd
00000200: 50d7 033c 8c9f 9e3e aec2 533f c5c9 25be
00000210: de44 e53e 817b 91bf 60da c93e 15d6 373f
00000220: 92c4 333f 1994 a33e 0052 1cbe 21f2 143f
00000230: d6fb 3ebf d319 973e a7a6 a33e 267b 003e
00000240: c251 923e 0fdb b53e 3f5f 2e3f 5001 773e
00000250: e0dc d4be f707 743e d6c8 283f 5d89 083f
00000260: 476b e23e 0eae 7fbe 579d 83be 6d26 263f
00000270: a536 6a3e 5df9 003f 5bc9 f43e e275 fcbe
00000280: 3e38 c3be 4848 b4be 55a8 053f 4d1c 073f
00000290: 3f34 353f 709c ac3e 98de ef3e 38b3 00be
000002a0: e4bb ed3e 073b 013f 97a4 d13e 27b6 073f
000002b0: fa10 463d 81e5 0b3f 7c5a 1d3e 09d1 da3e
000002c0: e4a2 093f 42b9 a63e b809 4c3e 0999 3f3e
000002d0: a957 14bb 3ffe 183f 36b0 f9bd 6b2d 0dbd
000002e0: 6ccc a93e 452a 453f a1b9 0dbd db76 f83e
000002f0: f28c 08bf ecae be3e 19a7 123c 7bde d8be
00000300: 04ee 903e 3070 603c 4ecf 6a3d 4927 323f
00000310: 4035 b3be 8b49 323e 5a88 e03c 4e02 4f3e

layer2.weight f4 [100, 200]
-0.50280404 -0.54674083 -0.7633287 -0.766702 -0.39384755 -0.26866743 -0.83474326 -0.58983094
-0.4543784 -0.3693818 -0.45781142 -0.37887442 0.49154487 0.12118284 -0.577582 -0.76143163
-0.46073124 0.04224407 -0.5316106 -0.47718692 -0.4656021 -0.4604211 -0.7623551 -0.57306296
-0.08511077 -0.4550409 0.4207291 -0.52490944 -0.51252353 0.57218605 -0.623106 -0.34816003
1.2373464 0.022716723 -0.581482 -0.1792624 -0.63560873 0.7366167 0.83239853 -0.15584625
-0.8697688 -0.7220241 -0.15655857 0.64971894 -0.908023 -0.35355005 -1.0377908 -0.5909325
-0.47667488 -0.48135573 -0.887672 -0.5466457 -0.7240552 -0.56727725 -0.19068421 -0.039635837
-0.45487478 -0.78217727 -0.28694138 -0.6109552 0.16444594 -0.45853 -0.6571848 -0.7173639
-0.24416584 -0.6867469 -1.1140245 -0.49237928 -0.47173232 -0.1939471 -0.5482797 -0.67762613
-0.5640364 -0.49670944 0.3828626 -0.6703604 -0.23205613 0.38863438 -0.65807146 -0.26820153
-0.9872596 -0.47928303 -0.6902183 -0.27574316 -0.07605377 -0.43021268 0.07113934 -0.21661745
-0.24158457 -0.10036017 0.8279047 0.35174695 -0.5187312 0.76402795 -0.43861195 -0.39428076
-0.38671625 -0.56635064 -0.58658147 -0.24607816 0.3576036 -0.24939825 0.12268442 -0.65620583
-0.45937958 -0.6006021 -0.60767156 -0.55494714 -0.4380341 -0.53165406 -0.68563604 -0.25816083
-0.568151 -0.810403 -0.7947935 -0.10264198 -0.46371832 0.4242023 -0.702284 -0.9624206
-0.14092879 -0.7159852 0.78309023 0.05897482 -0.59627926 -0.9071552 -0.55004764 0.013256952
-0.39432403 -0.38887298 -0.40972012 -0.4349661 -0.6710018 -0.25417447 -0.49573883 -0.6032836
-0.74166524 0.056272786 -0.48083007 -0.5813574 0.7599615 -0.46137685 -0.5622342 0.42857194
-0.50403863 -0.49489802 -0.68037075 0.06671551 -0.6360848 -0.45790917 -0.53666675 -0.90997905
0.3118537 -0.47799549 0.021503733 -0.42480418 -0.7602478 -0.6353365 -0.7658986 1.7988168
-0.75425494 0.16374832 -0.51964563 0.40001956 -0.6681827 -0.2762287 -0.34130472 -0.30849966
-0.67861027 -0.6207882 -0.74776673 -0.51322985 -0.61275977 -0.052640077 0.4202759 -0.6805008
-0.74629 -0.20857501 0.121778175 -0.4203893 -0.48015982 -0.44245204 0.47973713 0.033721805
-0.45125934 -0.36356154 -0.5195218 -0.6166594 1.0743823 -0.1602562 -0.6621193 0.5246335
0.33246103 -0.04989118 -0.54884475 -0.17103511 1.0512986 -0.29376793 0.19413349 -0.7359432
0.12542392 0.2584649 -0.22728617 0.2622241 -0.14488716 0.44165954 0.09642755 0.5428697
-0.49629018 0.24020655 0.35668957 -0.088723086 0.11590365 0.089375116 0.3807899 0.10545476
0.5319639 0.412666 0.45902702 0.61292475 0.61410284 -0.1794309 0.4769802 0.13869119
0.48197398 0.19344382 0.1848802 0.50986856 0.31938243 -0.20929076 0.40176517 0.6093125
-0.16332646 0.025480568 0.39762315 0.6511061 0.57298845 -0.38986433 -0.3035469 0.111944266
0.4172001 -0.09221748 0.14671157 -0.47877502 0.4342478 0.60667646 0.069394074 0.076564364
0.11836891 0.25676745 0.3425267 0.18245856 0.52537376 0.5500605 0.5125096 0.42131525
00000000: c4b7 00bf 35f7 0bbf 8269 43bf 9546 44bf
00000010: 63a6 c9be c78e 89be bcb1 55bf 29ff 16bf
00000020: 49a4 e8be 9c1f bdbe 4266 eabe d4fb c1be
00000030: c5ab fb3e b52e f83d 6adc 13bf 2fed 42bf
00000040: f7e4 ebbe 1e08 2d3d a217 08bf d851 f4be
00000050: 6663 eebe 50bc ebbe b429 43bf 41b4 12bf
00000060: 8e4e aebd 1ffb e8be ce69 d73e 7760 06bf
00000070: be34 03bf c97a 123f e083 1fbf 0842 b2be
00000080: 5e61 9e3f 6c18 ba3c 01dc 14bf 9090 37be
00000090: 41b7 22bf e992 3c3f 1218 553f 2996 1fbe
000000a0: 2ba9 5ebf 92d6 38bf e450 20be fb53 263f
000000b0: 3274 68bf 8304 b5be 54d6 84bf 5a47 17bf
000000c0: bb0e f4be 4274 f6be 793e 63bf f9f0 0bbf
000000d0: ae5b 39bf 1539 11bf b942 43be 3059 22bd
000000e0: 59e5 e8be c53c 48bf fbe9 92be 8f67 1cbf
000000f0: 8464 283e 72c4 eabe 433d 28bf 29a5 37bf
00000100: 9c06 7abe a5ce 2fbf 5b98 8ebf 2319 fcbe
00000110: e686 f1be 129a 46be 0f5c 0cbf e878 2dbf
00000120: b164 10bf b350 febe 9106 c43e bd9c 2bbf
00000130: 1fa0 6dbe 16fb c63e 5f77 28bf b651 89be
00000140: 0cbd 7cbf 9664 f5be 26b2 30bf 352e 8dbe
00000150: 14c2 9bbd d644 dcbe 81b1 913d f7d0 5dbe
00000160: f261 77be a289 cdbd 90f1 533f 2d18 b43e
00000170: 91cb 04bf 5697 433f bf91 e0be 2bdf c9be
00000180: acff c5be 5bfc 10bf 342a 16bf eafb 7bbe
00000190: d217 b73e 4162 7fbe f841 fb3d 1bfd 27bf
000001a0: cd33 ebbe 0fc1 19bf 5d90 1bbf 0411 0ebf
000001b0: 0146 e0be 7b1a 08bf d885 2fbf a82d 84be
000001c0: 5872 11bf 9276 4fbf 9677 4bbf f535 d2bd
000001d0: 7d6c edbe 0b31 d93e e2c8 33bf 3261 76bf
000001e0: a34f 10be ce4a 37bf 9a78 483f 958f 713d
000001f0: c2a5 18bf 533b 68bf eccf 0cbf b033 593c
00000200: d7e4 c9be 5c1a c7be d6c6 d1be e0b3 debe
00000210: c6c6 2bbf 2823 82be 7bd1 fdbe cb70 1abf
00000220: c6dd 3dbf 4b7e 663d 5c2f f6be d7d3 14bf
00000230: d68c 423f 9639 ecbe 95ee 0fbf c86d db3e
00000240: ad08 01bf 4663 fdbe c72c 2ebf 24a2 883d
00000250: 74d6 22bf 1273 eabe fe62 09bf 63f4 68bf
00000260: 4aab 9f3e d3bb f4be 9928 b03c ef7f d9be
00000270: 9a9f 42bf 6aa5 22bf ee11 44bf a13f e63f
00000280: da16 41bf a4ad 273e 7f07 05bf 5dcf cc3e
00000290: 050e 2bbf d96d 8dbe 7ebf aebe abf3 9dbe
000002a0: 67b9 2dbf faeb 1ebf a46d 3fbf 0863 03bf
000002b0: d3dd 1cbf 1f9d 57bd 672e d73e 4d35 2ebf
000002c0: dd0c 3fbf b094 55be d666 f93d 443d d7be
000002d0: 82d7 f5be 1389 e2be 1ba0 f53e e01f 0a3d
000002e0: 770b e7be bd24 babe 61ff 04bf 64dd 1dbf
000002f0: 5c85 893f 341a 24be a780 29bf 624e 063f
00000300: 5538 aa3e b25a 4cbd 1781 0cbf d423 2fbe
00000310: f490 863f c068 96be eeca 463e c666 3cbf
00000320: 216f 003e 8355 843e b5bd 68be 3d42 863e
00000330: 4d5d 14be 3321 e23e cf7b c53d 82f9 0a3f
00000340: bf19 febe b5f8 753e 04a0 b63e 73b4 b5bd
00000350: e55e ed3d 4d0a b73d e5f6 c23e aaf8 d73d
00000360: c92e 083f f548 d33e 9705 eb3e a3e8 1c3f
00000370: d835 1d3f bcbc 37be c036 f43e 1005 0e3e
00000380: 4bc5 f63e 2316 463e 3c51 3d3e bf86 023f
00000390: 1886 a33e 5150 56be 2ab4 cd3e e7fb 1b3f
000003a0: 0d3f 27be a0bc d03c 4395 cb3e e4ae 263f
000003b0: 5faf 123f 4c9c c7be 806a 9bbe 0943 e53d
000003c0: 409b d53e 85dc bcbd 8f3b 163e 0022 f5be
000003d0: ba55 de3e 264f 1b3f 7b1e 8e3d c7cd 9c3d
000003e0: 666b f23d 0677 833e a95f af3e 6bd6 3a3e
000003f0: e57e 063f c4d0 0c3f d433 033f a2b6 d73e

layer2.bias f4 [100]
-0.7683826 0.83184725 0.71944135 0.7438545 0.85432106 -0.5219997 0.63864607 -0.8822073
0.40378374 -0.3352313 -0.65525883 -0.56955177 0.8149133 -0.6742113 0.7890684 -0.8984223
0.114995085 0.80939966 -0.41723874 0.74426305 0.48006144 -0.18929963 -0.72321475 0.3889089
0.7432148 -0.68687135 0.81003934 0.71527237 -0.5387724 -0.6437452 0.71761745 0.7504043
-0.41021097 -0.4756787 -0.6534879 -0.54078716 0.80226415 0.69813174 0.73938566 -0.6171512
0.8509339 0.6097296 -0.42828488 0.80728686 -0.82270193 0.88660944 -0.8500101 0.7896319
0.8651492 0.86246496 -0.45031875 -0.53129715 -0.59587723 0.7325832 -0.55421823 0.3793996
-0.8032229 0.7622619 -0.5264583 -0.5364551 -0.50110644 0.7912614 -0.23677167 -0.18132402
0.8112623 -0.92984223 0.06232521 -0.35138893 -0.52020437 0.37378165 0.7959195 0.8102518
-0.7939619 0.7700747 -0.63092136 0.6911697 -0.59819764 -0.88076913 0.7727448 0.5564611
0.77405035 -0.5141373 0.7224171 0.7733421 -0.4351968 0.7829051 0.764439 -0.8363918
0.77437776 0.7118433 0.7626805 0.8247416 0.7535778 0.74321353 -0.7580465 -0.42732906
0.7630408 -0.7271181 -0.81645703 0.71882117
00000000: b9b4 44bf f1f3 543f 4f2d 383f 406d 3e3f
00000010: c9b4 5a3f c6a1 05bf 4f7e 233f 56d8 61bf
00000020: bebc ce3e 70a3 abbe 0bbf 27bf 25ce 11bf
00000030: 289e 503f 1d99 2cbf 6300 4a3f 01ff 65bf
00000040: 8b82 eb3d d134 4f3f 51a0 d5be 0688 3e3f
00000050: 9dca f53e c3d7 41be 9a24 39bf 111f c73e
00000060: 5343 3e3f cdd6 2fbf bd5e 4f3f 171c 373f
00000070: fdec 09bf 7ccc 24bf c7b5 373f 7f1a 403f
00000080: 2c07 d2be 298c f3be fc4a 27bf 0771 0abf
00000090: 2f61 4d3f c3b8 323f 6148 3d3f 9ffd 1dbf
000000a0: ced6 593f 3d17 1c3f 2848 dbbe 5aaa 4e3f
000000b0: 989c 52bf d6f8 623f 439a 59bf 5125 4a3f
000000c0: 6b7a 5d3f 81ca 5c3f 2e90 e6be 1703 08bf
000000d0: 698b 18bf 938a 3b3f 3fe1 0dbf aa40 c23e
000000e0: 04a0 4dbf 9923 433f f9c5 06bf 1f55 09bf
000000f0: 8348 00bf 1b90 4a3f 4674 72be 01ad 39be
00000100: e3ae 4f3f 240a 6ebf b848 7f3d 40e9 b3be
00000110: 1d2c 05bf 4f60 bf3e 61c1 4b3f a96c 4f3f
00000120: 1641 4bbf 9e23 453f 1084 21bf 7ff0 303f
00000130: 7b23 19bf 167a 61bf 9ad2 453f 3c74 0e3f
00000140: 2a28 463f 819e 03bf 54f0 383f bff9 453f
00000150: 1dd2 debe 786c 483f 46b2 433f c61d 56bf
00000160: 9f3d 463f 5d3b 363f 073f 433f 4422 533f
00000170: 7aea 403f 3e43 3e3f 560f 42bf e0ca dabe
00000180: a456 433f 6924 3abf 5403 51bf aa04 383f

out1.weight f4 [3, 100]
0.44054148 0.41828084 0.43680653 0.44585562 0.5095114 0.65141284 0.2666038 0.084206514
0.4085746 -0.081900455 0.2661266 -0.21322036 0.3992567 -0.25361606 0.42218262 -0.39871874
0.19278254 0.5330949 -0.15076423 0.40053266 0.4712295 1.070197 -0.22388318 0.41717398
0.44149113 0.5139292 0.36092907 0.4686509 0.18174894 0.08135163 0.3767219 0.48969716
-0.27844846 -0.2346847 0.017366221 0.5962549 0.53688645 0.38394457 0.43983468 0.16618086
0.36601552 0.42221856 0.28373984 0.5482209 -0.37422767 0.39295512 -0.5427802 0.34429663
0.40386015 0.4249845 -0.04538484 0.095697135 -0.053694528 0.27753967 -0.13924812 0.30599213
-0.3696625 0.51361966 0.5650728 -0.111697204 0.037101347 0.3501557 -0.09963888 -0.11840655
0.50492287 -0.40746298 -0.05469223 -0.18185012 -0.1357713 0.3636324 0.41217956 0.5388666
0.45040047 0.402117 -0.3400569 0.50736487 -0.2556508 -0.49079776 0.5455262 0.25358474
0.37012145 -0.22545968 0.3565201 0.40321946 0.080834895 0.43648997 0.4201403 -0.5523752
0.34862015 0.48012516 0.43654114 0.46334183 0.3942665 0.3799946 0.29083982 -0.35109895
0.47727975 0.4961423 0.54550296 0.34597415 -0.5231592 0.5638444 0.5375113 0.3998835
0.4326386 0.65650237 0.29842785 0.4363924 0.45084152 -0.12374361 -0.33394125 0.025849996
0.49926582 -0.07090989 0.51813424 -0.42809337 0.28872657 0.505289 -0.037506457 0.5147071
0.457538 0.08470175 -0.23276958 0.267419 0.4673886 -0.33192036 0.41845003 0.53387976
0.2538885 0.22889565 0.37330607 0.52647406 -0.201598 -0.2221477 0.336812 -0.36179274
0.5475745 0.55154973 0.42354327 0.182457 0.49565813 0.56010777 0.32545894 0.5347333
-0.49268177 0.5725713 -0.4761787 0.40271774 0.5324652 0.40494597 0.096806146 -0.10179782
-0.15142114 0.2731583 -0.21801126 0.25960076 -0.49353522 0.47680682 -0.38656807 -0.06877746
-0.21827498 0.5155471 0.0739013 0.15076266 0.5027552 -0.41681263 0.11379904 0.08010281
-0.23251016 0.38256213 0.45786554 0.40590638 -0.5164946 0.5203658 -0.012959529 0.5481183
-0.011744561 -0.46900013 0.44420284 0.1884349 0.49222907 -0.0864339 0.4265358 0.39479804
-0.3348234 0.45729816 0.5144377 -0.546083 0.49264538 0.4015871 0.50671256 0.5771743
0.51558656 0.4885152 0.55125177 -0.43601155 0.49108326 -0.12226682 0.5873747 0.41021493
0.24122787 0.30298442 0.27905926 0.18503512 0.30045 -0.18454725 0.19290438 0.4567485
0.015529354 0.26027533 0.020867988 0.3351415 0.3382194 0.091146365 0.29910213 -0.32425576
-0.23320074 0.21121593 0.20468727 0.34021547 0.07654563 -0.28319132 -0.2671565 0.045588315
0.3281692 0.36739853 0.26205766 0.18115668 -0.20001751 0.27435616 0.32614154 0.28740504
-0.27445698 -0.025239758 -0.19151618 0.15974636 0.251209 0.3632521 0.18400946 -0.30345163
0.29957142 0.25911015 0.5140018 0.22525339 -0.2864258 0.25406635 -0.30713195 0.3154263
0.3034933 0.28732938 -0.23342189 0.3724927 -0.10693263 0.15336506 -0.014553297 0.015909044
00000000: a78e e13e e828 d63e 1ba5 df3e 3047 e43e
00000010: 576f 023f fec2 263f 4b80 883e 7774 ac3d
00000020: b130 d13e 6dbb a7bd bf41 883e 7056 5abe
00000030: 606b cc3e f7d9 81be 5228 d83e dd24 ccbe
00000040: c968 453e e878 083f f061 1abe 9e12 cd3e
00000050: fe44 f13e 37fc 883f a241 65be d497 d53e
00000060: 200b e23e dd90 033f b2cb b83e 03f3 ef3e
00000070: 651c 3a3e af9b a63d b1e1 c03e 96b9 fa3e
00000080: cc90 8ebe 3051 70be 9b43 8e3c 29a4 183f
00000090: 6471 093f 6294 c43e 0332 e13e 512b 2a3e
000000a0: 6366 bb3e 082d d83e 5946 913e 3458 0c3f
000000b0: c59a bfbe 6a31 c93e a5f3 0abf a647 b03e
000000c0: c2c6 ce3e 9297 d93e 74e5 39bd dcfc c33d
000000d0: cbee 5bbd ae19 8e3e 0f97 0ebe 00ab 9c3e
000000e0: 6744 bdbe 947c 033f 9ca8 103f 81c1 e4bd
000000f0: 95f7 173d 9c47 b33e 780f ccbd 227f f2bd
00000100: a042 013f fd9e d0be f604 60bd eb36 3abe
00000110: a207 0bbe 072e ba3e 3309 d33e 29f3 093f
00000120: e49a e63e 48e2 cd3e f01b aebe aae2 013f
00000130: a9e4 82be d849 fbbe 9ba7 0b3f dcd5 813e
00000140: 8f80 bd3e e7de 66be cd89 b63e c872 ce3e
00000150: c48c a53d 9d7b df3e a11c d73e 7668 0dbf
00000160: 577e b23e f7d2 f53e 5282 df3e 243b ed3e
00000170: 4cdd c93e a78e c23e f5e8 943e 3ec3 b3be
00000180: 035e f43e 5d06 fe3e 15a6 0b3f 8623 b13e
00000190: c3ed 05bf 1b58 103f 579a 093f 88bd cc3e
000001a0: ce82 dd3e 8a10 283f 89cb 983e d36e df3e
000001b0: b3d4 e63e 4a6d fdbd 59fa aabe 5fc3 d33c
000001c0: c59f ff3e 3439 91bd 72a4 043f 0e2f dbbe
000001d0: f8d3 933e 9f5a 013f 5fa0 19bd d8c3 033f
000001e0: 6c42 ea3e 1c78 ad3d 265b 6ebe 25eb 883e
000001f0: 8f4d ef3e 77f1 a9be 153f d63e 58ac 083f
00000200: acfd 813e 9f63 6a3e f921 bf3e 01c7 063f
00000210: b56f 4ebe b07a 63be 9f72 ac3e e63c b9be
00000220: d82d 0c3f 5d32 0d3f aada d83e 02d6 3a3e
00000230: e7c6 fd3e 3963 0f3f 8ea2 a63e 48e4 083f
00000240: c940 fcbe 0894 123f b2cd f3be 0531 ce3e
00000250: a44f 083f 1455 cf3e 4d42 c63d 607b d0bd
00000260: 250e 1bbe 68db 8b3e 583e 5fbe 64ea 843e
00000270: a6b0 fcbe 0620 f43e 40ec c5be 32db 8cbd
00000280: 7a83 5fbe e5fa 033f 9159 973d 8761 1a3e
00000290: 91b4 003f 7768 d5be 790f e93d f10c a43d
000002a0: 2517 6ebe 2fdf c33e 5a6d ea3e f6d2 cf3e
000002b0: fd38 04bf b136 053f 3454 54bc 7b51 0c3f
000002c0: 426c 40bc c920 f0be 8e6e e33e 14f5 403e
000002d0: 7305 fc3e 4204 b1bd e662 da3e f822 ca3e
000002e0: f96d abbe fc22 ea3e 30b2 033f 18cc 0bbf
000002f0: 043c fc3e d39c cd3e eab7 013f b2c1 133f
00000300: 7bfd 033f aa1e fa3e d61e 0d3f e83c dfbe
00000310: 446f fb3e 0767 fabd 305e 163f b107 d23e
00000320: 7004 773e c620 9b3e dbe0 8e3e d979 3d3e
00000330: 95d4 993e f4f9 3cbe ba88 453e f0da e93e
00000340: d56e 7e3c cf42 853e 58f3 aa3c ab97 ab3e
00000350: 182b ad3e f2aa ba3d ea23 993e da04 a6be
00000360: 2dcc 6ebe fd48 583e 8a99 513e b930 ae3e
00000370: f5c3 9c3d 74fe 90be bdc8 88be d0ba 3a3d
00000380: cb05 a83e a91b bc3e 6c2c 863e 2381 393e
00000390: 64d1 4cbe 6978 8c3e 06fc a63e c126 933e
000003a0: a085 8cbe 9cc3 cebc d11c 44be 8d94 233e
000003b0: 779e 803e 2efc b93e fa6c 3c3e 035e 9bbe
000003c0: 6d61 993e 16aa 843e 9f95 033f d3a8 663e
000003d0: 67a6 92be fc14 823e 6640 9dbe 8e7f a13e
000003e0: 7963 9b3e d61c 933e 2606 6fbe 5db7 be3e
000003f0: 7fff dabd bb0b 1d3e f470 6ebc af53 823c

out1.bias f4 [3]
0.85572594 1.2773523 1.2353183
00000000: db10 5b3f 4880 a33f e91e 9e3f

out2.weight f4 [3, 100]
-0.09697058 0.5202574 0.28838032 0.34407467 0.5078603 0.5022476 0.3564113 0.3738384
0.1747681 -0.107153155 -0.13519613 0.038231533 0.36101902 -0.18528353 0.3716134 -0.5130785
0.005406119 0.5030432 0.00029961858 0.38130897 0.25978854 0.25861314 -0.16213043 0.18052405
0.42152953 0.11121611 0.49749064 0.38315842 0.1795886 0.049970564 0.48195848 0.4795685
-0.31727543 -0.29971915 0.14203316 -0.17708066 0.3878276 0.38836583 0.3323518 0.0893415
0.48476824 0.18415342 0.47403347 0.5035635 -0.50476885 0.50132734 -0.37834263 0.44358405
0.46379024 0.46605524 -0.021291016 -0.097369954 -0.22301784 0.36644563 -0.1638307 0.2612127
-0.2526979 0.49004722 0.27522862 -0.14066923 -0.14043212 0.4237699 -0.16964187 -0.09601798
0.49497348 -0.43860975 -0.01781587 0.06358315 -0.19387823 0.24509725 0.43502298 0.42337623
-0.09322408 0.48701608 -0.08255556 0.41034147 -0.1695355 -0.47275683 0.44121128 0.3693006
0.44436193 -0.22724032 0.4400064 0.3597339 -0.13409926 0.44771335 0.45885795 -0.44146582
0.46614233 0.40972453 0.42469057 0.5218525 0.48928788 0.45013562 0.29327053 -0.39718425
0.45447958 0.28634754 0.41161746 0.40562323 -0.0120920185 0.010540152 0.0842672 -0.060712457
0.021198189 0.08784455 0.012572813 0.056100704 -0.059979796 -0.09416094 0.03418088 0.09032275
-0.011196399 0.004693425 0.050015558 -0.032611918 -0.009777225 -0.093884684 -0.026972974 -0.025583519
-0.051935505 0.08173593 0.05172875 0.05817596 -0.09933555 0.010720181 -0.044968545 0.09354051
0.053050768 0.0002756357 0.07465952 0.042910542 0.049745716 0.08053016 0.028293932 0.056622814
-0.052327037 -0.069837116 -0.06374913 -0.06308886 -0.03489555 -0.021763122 -0.020528544 -0.074253514
0.04865178 -0.09052386 -0.006712389 -0.08422394 0.055927135 -0.07497803 -0.018418038 -0.09081673
-0.010284662 -0.07556837 0.051865805 0.08763529 0.014204025 -0.035503354 -0.0630096 -0.008421159
0.0054579857 0.031279147 0.0071178796 0.07336992 0.0116058355 -0.0044277073 -0.0676026 -0.06360761
-0.079077244 -0.023949742 -0.058149017 -0.06213175 -0.042567372 0.087255515 0.01985929 -0.073197655
0.056271292 0.016679263 -0.07591023 -0.07724165 -0.009080566 -0.045223095 0.015125632 0.06244221
0.06393228 0.085582666 -0.023261799 -0.0033848167 0.0005429268 -0.050421715 -0.078809395 0.007712722
-0.09511631 -0.03768077 -0.06739805 -0.0076939226 -0.0127366185 -0.07941111 -0.054504227 0.06413068
0.25764823 0.35857165 0.20618522 0.18755502 0.21276747 -0.23509651 0.07071792 0.40598965
0.1068585 0.16786036 0.10753401 0.21031617 0.35779032 0.072790384 0.291777 -0.35108438
-0.05760228 0.2672797 0.20114121 0.23336378 0.09805359 -0.4405208 -0.2608153 -0.19859597
0.32530457 0.20853753 0.25536627 0.33697397 -0.26253203 0.3449488 0.26719436 0.25189644
-0.36516857 -0.095257714 -0.22834423 0.111470595 0.36130995 0.16934344 0.09868398 -0.16817805
0.20006245 0.3081525 0.38111147 0.2976761 -0.258124 0.3033268 -0.36470214 0.18846224
0.34617972 0.33424675 -0.08683639 0.15009049 -0.09180583 0.10875041 0.05203131 0.085375614
00000000: 8398 c6bd 972f 053f 96a6 933e 8e2a b03e
00000010: 2203 023f 4c93 003f 8b7b b63e bf67 bf3e
00000020: 69f6 323e 1d73 dbbd db70 0abe ab98 1c3d
00000030: 7cd7 b83e f7ba 3dbe 1d44 be3e 1d59 03bf
00000040: d025 b13b 70c7 003f 2016 9d39 ee3a c33e
00000050: 0103 853e f168 843e 8505 26be 4cdb 383e
00000060: b8d2 d73e 46c5 e33d 18b7 fe3e 572d c43e
00000070: 13e6 373e efad 4c3d 43c3 f63e 018a f53e
00000080: ed71 a2be ca74 99be 2471 113e a254 35be
00000090: 5791 c63e e3d7 c63e 042a aa3e adf8 b63d
000000a0: 8b33 f83e b792 3c3e 84b4 f23e 8ae9 003f
000000b0: 8838 01bf fd56 003f 20b6 c1be 731d e33e
000000c0: ea75 ed3e cb9e ee3e 7f6a aebc e669 c7bd
000000d0: ca5e 64be c39e bb3e 3cc3 27be acbd 853e
000000e0: 9f61 81be 78e7 fa3e c4ea 8c3e 980b 10be
000000f0: 70cd 0fbe 5ef8 d83e 99b6 2dbe 13a5 c4bd
00000100: 2a6d fd3e 7591 e0be 96f2 91bc e237 823d
00000110: 0488 46be c6fa 7a3e 55bb de3e c5c4 d83e
00000120: 44ec bebd 2c5a f93e e412 a9bd 4718 d23e
00000130: b79a 2dbe 2f0d f2be 72e6 e13e f814 bd3e
00000140: 6883 e33e b0b1 68be 8548 e13e 0b2f b83e
00000150: 5151 09be af3a e53e 6eef ea3e cf07 e2be
00000160: 35aa ee3e 6ac7 d13e 0b71 d93e 2098 053f
00000170: f183 fa3e 2d78 e63e 8e27 963e bc5b cbbe
00000180: 8cb1 e83e 259c 923e 86bf d23e d9ad cf3e
00000190: 9a1d 46bc 9ab0 2c3c 4894 ac3d a0ad 78bd
000001a0: d3a7 ad3c d8e7 b33d 33fe 4d3c dac9 653d
000001b0: 60ad 75bd 73d7 c0bd 4001 0c3d 22fb b83d
000001c0: 1a71 37bc 4dcb 993b 1ddd 4c3d 1394 05bd
000001d0: a730 20bc 9d46 c0bd 6df6 dcbc 8794 d1bc
000001e0: 53ba 54bd 2b65 a73d 87e1 533d ea49 6e3d
000001f0: 7070 cbbd b3a3 2f3c f030 38bd 2b92 bf3d
00000200: c34b 593d 3383 9039 17e7 983d f7c2 2f3d
00000210: 2ac2 4b3d ffec a43d adc8 e73c 53ed 673d
00000220: e054 56bd c306 8fbd e78e 82bd bb34 81bd
00000230: a3ee 0ebd 9348 b2bc 7a2b a8bc 3a12 98bd
00000240: 1747 473d 9364 b9bd 9af3 dbbb 9a7d acbd
00000250: da13 653d 158e 99bd 6de1 96bc 1ffe b9bd
00000260: 0081 28bc 97c3 9abd 3d71 543d 227a b33d
00000270: 00b8 683c f76b 11bd 2d0b 81bd e7f8 09bc
00000280: e7d8 b23b 901e 003d 1a3d e93b f842 963d
00000290: 6726 3e3c 4d16 91bb 3b73 8abd b544 82bd
000002a0: 40f3 a1bd 4032 c4bc aa2d 6ebd dd7d 7ebd
000002b0: 205b 2ebd 05b3 b23d f3af a23c a7e8 95bd
000002c0: ba7c 663d f3a2 883c d376 9bbd df30 9ebd
000002d0: a7c6 14bc da3b 39bd 80d1 773c 67c3 7f3d
000002e0: edee 823d f745 af3d 878f bebc cdd3 5dbb
000002f0: 3353 0e3a 0087 4ebd d266 a1bd 00bb fc3b
00000300: 57cc c2bd 2757 1abd fd07 8abd 4d1d fcbb
00000310: 40ad 50bc 4ba2 a2bd d33f 5fbd f256 833d
00000320: 78ea 833e b496 b73e 3822 533e 6c0e 403e
00000330: b7df 593e 24bd 70be 8fd4 903d e0dd cf3e
00000340: a1d8 da3d 96e3 2b3e cb3a dc3d 1f5d 573e
00000350: 4b30 b73e 2013 953d cc63 953e 55c1 b3be
00000360: 5ef0 6bbd e3d8 883e f6f7 4d3e eaf6 6e3e
00000370: 52d0 c83d f18b e1be 9589 85be be5c 4bbe
00000380: 528e a63e dd8a 553e 5ebf 823e da87 ac3e
00000390: 996a 86be 219d b03e b3cd 883e 92f8 803e
000003a0: 60f7 babe 7a16 c3bd 12d3 69be b24a e43d
000003b0: 9efd b83e 5e68 2d3e d41a ca3d de36 2cbe
000003c0: 2cdd 4c3e 2ac6 9d3e 0b21 c33e 0069 983e
000003d0: d428 84be a64d 9b3e 3dba babe 3ffc 403e
000003e0: 783e b13e 6422 ab3e 47d7 b1bd 52b1 193e
000003f0: b204 bcbd 89b8 de3d c81e 553d 69d9 ae3d

out2.bias f4 [3]
1.1986425 0.04680426 1.1604568
00000000: 1e6d 993f d3b5 3f3d d989 943f
