Fibrosis_EDA_model0.bin (torch, 93381 bytes, 8 tensors)

layer1.weight f4 [200, 9]
00000000: fdc0 cb3c 0733 ee3e c0a2 2fbe 801e 95be
00000010: 4555 ca3e 0971 183e d7eb ab3e 4108 173f
00000020: ba48 183f a5f1 673d e31a ecbd aaa8 183f
00000030: f9c4 1c3f ed5a 2fbe 19a4 5dbe 5ff2 1dbd
00000040: ab9b afbe e03e 28bf 4e54 c43e 9d03 fe3e
00000050: 2b1a 0ebd e4b5 7bbe 56da 033e 553e 0f3e
00000060: 4e74 50be 793a adbe 4d9e 2d3f a80a 77be
00000070: 85a2 80bd 5b97 f53e 1a0e a13e 5cc6 2abe
00000080: 2b46 293d 8cb3 023f bc49 b6be 2ee1 c7be
00000090: 317d b2bd a526 5d3e febc debb e0c0 e1bd
000000a0: 8729 38bf 66ff 7fbe d39d 443e cc75 f1be
000000b0: 71e1 853e 4371 90be f26b 023f a581 a13e
000000c0: cc78 0b3d 3aea cc3e 3f65 173e f951 363f
000000d0: c226 983e 11fa 103f f2f6 9fbe 9652 b0bc
000000e0: df7a 713e a6b2 a83e 0bc7 373d 6a8c 193e
000000f0: 090f c43e 0c01 e33b d0be 123f d1b9 043f
00000100: c657 253f 517a ffbc d818 a33e 74d0 febe
00000110: f7b9 c9be 01a1 cfbd f14b 4bbe 1556 0dbf
00000120: 60dc 14bf 74b5 fb3e 2ef0 3fbd adb5 ab3e
00000130: 87ef fd3e 2c1f 4c3e 8c84 dc3e 1122 013f
00000140: b0b0 b03e 578f 1c3f 14d7 ba3e fcdd 3f3e
00000150: ba04 c2be b74c e13e 06c7 023f 6419 fa3e
00000160: a9b5 703e c961 eb3e 6003 cfbd dda1 ed3e
00000170: bcbd be3e 81dd bfbe 2042 2e3f fb46 413f
00000180: 1ef3 263f 12ec cc3e 52bc 493f b7ea 1ebe
00000190: 34bf adbe f1c2 d03e 1cc7 17bf b466 a43e
000001a0: cbf6 85bd 8b2a da3e 3410 eabd 46ac 073e
000001b0: 7569 97be cbb9 143f 006b 653e 62bd abbd
000001c0: 2866 1c3f 1da7 113f 284a b03e 099a 4a3f
000001d0: e399 2c3f 0f8a 1cbf ac6e 113f aca6 39be
000001e0: 72e2 e2be b9e3 f53d fa1b 1f3e 7f2e 1fbe
000001f0: 71ff df3e cb50 fb3e a1d9 ec3e d735 c63e
00000200: 9f84 d63e 0ef9 b3be 91cd 533e 33fd df3e
00000210: 99fa 023f ef46 3d3f 5461 263e c448 013e
00000220: fd12 1c3e cf07 9bbe c9cd 29bf 36da 18bf
00000230: 4ad3 8abe b146 a43e 94cd 77bd 1f82 62bd
00000240: a7bf b5be 34f1 41be dd9a 20bc 23e8 babe
00000250: 8d3e 83be cd17 653e c6f0 c6bd 1e2e e23e
00000260: a2e3 86be 3502 ae3d b287 0f3f 700c 4f3e
00000270: 52b5 f03d 837a 07be 559a 083f db25 633e
00000280: ce98 913d 9d40 d93e 6ad7 1dbe e087 083f
00000290: 0eae d8bd dc5d a3be 6d6a fa3e 4c94 283f
000002a0: ea52 523f 7226 4a3f 06e4 593e 7b76 1dbd
000002b0: 85d4 923e ff4c 013f 8c4d d43d ecb8 c03e
000002c0: 99b8 503f 65e9 ff3e 030b 283f edeb db3e
000002d0: 53ac d33e a13f ae3e 5ada 333e f293 f43d
000002e0: 9d23 fdbe a4a6 bbbe b88e bb3e d94b 64be
000002f0: 538b e63e 2090 2c3c 124a 493f e4be b43e
00000300: 05b8 a2be ed51 98be a155 f23d 50e3 273f
00000310: c27b 37be 2d57 193f ea61 1dbe a5d4 6fbe
00000320: 9c38 123f 0999 b13e ed71 89bd cb71 e93d
00000330: 45cd 0bbf 81c3 473e a875 dbbe f444 f5be
00000340: aa1e 673e 938f 513e 14a0 07be e75b 49be
00000350: 1122 ebbe 4df0 d7be 2880 43bf 327f 29bf
00000360: 4659 c13e a95d 583d 818a 9cbd da75 2fbe
00000370: 00c4 0bbf ad83 d2be 486c 0bbf 2d00 22bf
00000380: 7f13 34bf 326a 75be b945 fcbc 300b 873d
00000390: a679 a6be 20d3 3e3e 6bd8 963e 5fbc aa3e
000003a0: 9beb 063f 9452 653d b310 f13e 60ec a93e
000003b0: c597 78bc 9d90 d6be 8cb8 133e 7530 a73e
000003c0: e3d6 5b3e 4743 793e 4c68 3a3f 1b0b 873e
000003d0: d88e 79be 41da b73e 3437 9dbe 12e0 8c3e
000003e0: d5bc a13d 5cba e93d d394 d53e dd7a 8abd
000003f0: 0491 d83e ca0f eb3e ace8 30bf 4051 753f
0.024872297 0.46523306 -0.17151928 -0.29124832 0.3951818 0.1488687 0.3357837 0.5899697
0.5948597 0.056626935 -0.11528566 0.5963236 0.61238056 -0.17124529 -0.2164463 -0.03856122
-0.34298453 -0.6572094 0.3834557 0.49612132 -0.034692924 -0.24581105 0.12876257 0.13988622
-0.20356867 -0.33833674 0.6781967 -0.24125159 -0.06280998 0.47967038 0.3145607 -0.1667723
0.041326683 0.51055217 -0.3560313 -0.39038986 -0.087152846 0.21596773 -0.006797432 -0.11023116
-0.71938366 -0.2499977 0.1920083 -0.47160184 0.2614856 -0.28211412 0.5094596 0.31544223
0.034050748 0.4002245 0.14784716 0.7121883 0.2971707 0.5663157 -0.31243092 -0.021523755
0.23582028 0.32948798 0.044867557 0.1499497 0.3829272 0.006927615 0.57322407 0.51846033
0.64587057 -0.031186255 0.31854892 -0.49768412 -0.39399692 -0.10138131 -0.19853188 -0.55209476
-0.58148766 0.49161875 -0.046859913 0.33537045 0.49596807 0.19933766 0.43069875 0.50442606
0.34509802 0.6115622 0.36492217 0.18737024 -0.3789423 0.4400384 0.51084936 0.48847497
0.23506798 0.45973042 -0.101080656 0.46412554 0.3725413 -0.37473682 0.6806965 0.7549893
0.6521472 0.40023857 0.7880298 -0.15519224 -0.3393494 0.40773728 -0.5928819 0.32109606
-0.06541213 0.42610583 -0.11428872 0.13249311 -0.29572645 0.58096 0.22404099 -0.08385731
0.6109338 0.5689562 0.34431577 0.7914129 0.6742231 -0.6114816 0.56809497 -0.18129987
-0.4431339 0.12006325 0.15538016 -0.1554508 0.43749574 0.49085078 0.46259788 0.38712952
0.41898057 -0.3515095 0.20683886 0.43747863 0.5116363 0.7393636 0.16248065 0.12625414
0.15241618 -0.30279395 -0.6632963 -0.59707963 -0.27114326 0.32085183 -0.06049879 -0.055299874
-0.35497782 -0.18939668 -0.009802547 -0.3650523 -0.2563366 0.2237236 -0.09713893 0.4417581
-0.26345545 0.08496515 0.5606643 0.20219588 0.11753334 -0.13230328 0.5336049 0.2218241
0.07109223 0.4243211 -0.15414205 0.5333233 -0.10580073 -0.31907547 0.4890932 0.65851283
0.82157767 0.7896491 0.2127839 -0.03844307 0.28677765 0.5050811 0.103663534 0.37641084
0.81531674 0.49982753 0.656418 0.42953435 0.4134241 0.3403292 0.17563763 0.11942281
-0.49441233 -0.36650574 0.36632323 -0.22294559 0.4502817 0.010532409 0.7862865 0.35301888
-0.3178102 -0.29750004 0.11832739 0.65581226 -0.17918304 0.59898645 -0.15369383 -0.23420961
0.5711763 0.3468707 -0.06711183 0.113986574 -0.5461009 0.19508173 -0.42863202 -0.4790417
0.22570291 0.20464925 -0.13244659 -0.19663964 -0.45924428 -0.42175522 -0.76367426 -0.6620971
0.37763423 0.052823696 -0.07643605 -0.171348 -0.5459595 -0.41116086 -0.544621 -0.6328152
-0.7034225 -0.23966292 -0.030794965 0.06593931 -0.32514685 0.18635225 0.2946199 0.3334684
0.52703255 0.055986956 0.47083053 0.33188152 -0.015172903 -0.41907206 0.14425868 0.32654157
0.21468692 0.2434207 0.72815394 0.2637566 -0.24370897 0.35908702 -0.3070618 0.27514702
0.07897345 0.11412498 0.41715106 -0.067617156 0.42298138 0.45910484 -0.6910503 0.958271

layer1.bias f4 [200]
00000000: ba0b 433d 2e05 39bd b08d 8bbe 9abd 2bbd
00000010: 5989 9cbd 320a fd3e 243e bc3e 3982 c6be
00000020: 3093 1f3f 12b8 3e3f 7e02 5e3f 8ca5 ebbd
00000030: 9efa 0d3f f221 9f3e c603 bc3e bc97 233e
00000040: 5010 513e d3f7 c53e d6d1 403f 69af 493f
00000050: 739a 88bd 51fc f53d 2f7f 4c3e 45f7 59bf
00000060: fc81 37bf 95aa 2dbd d4dc d63e a259 573e
00000070: 8cfa 34be 3e98 c03e 0130 333e d126 18bd
00000080: c1ed babb dfc4 653c 8cce 033f 32fc 4d3f
00000090: 45b2 9b3d ae1b a13d 6265 193f 1bd9 a53e
000000a0: fa5b 063f 2053 4a3e fd8f 6dbe 4d35 53bf
000000b0: 401d e33e 0ab5 90be bdd3 30bf c890 183f
000000c0: fe87 943e 5420 2c3f fbf4 183f 6193 9c3e
000000d0: 7dd7 193f 31e3 003f 0001 e53e 22f5 adbc
000000e0: 6e43 fb3e d726 a13e 54a1 9bbe 8c63 3c3e
000000f0: 11f6 383f 4cdd 33be e563 3ebf 02d3 8b3e
00000100: 3250 423f e031 10bd 85cd 203e 6fe5 9d3e
00000110: 4380 38bd 01b8 ba3e f1c6 583f 0ecf af3e
00000120: 73e1 c23e 57ed 123e d4e0 f93d 1485 813e
00000130: d1cf 793e d497 443f 2b1a 993e baa4 383f
00000140: deba 39bf 8e8a ee3e 8596 cc3e 3ed8 803e
00000150: 7e45 213f fe80 043f c205 d73e 75c2 38be
00000160: 4dc7 673e b6ea 103f 8eab 083f 1a33 90be
00000170: 33f7 01be dba9 003f 5884 e03e f826 a53e
00000180: ecd0 383f 0c0f d83e 1989 b83d a832 18be
00000190: 200a e93e e009 d73e ff73 283f 31db 223f
000001a0: ea88 b9bd d889 f93e aa3b eb3e 9945 e83e
000001b0: 8ac2 3d3f 67e0 aa3d 8e3b e03c 42dd d93e
000001c0: a77b bb3e 8aad cc3e 157f ba3e 8bce 183e
000001d0: b84b 0cbf c319 883e 555e 7ebe 202b 2f3e
000001e0: ff15 cc3e d3de b93d 5ecb c9bd df74 323f
000001f0: 4979 3f3e 6256 ff3e 2ea1 323e e313 563e
00000200: 1161 65be 83f3 843e 96a3 26be a8fe 703e
00000210: faac e0be f8df 4abf 5cf4 b6be 5349 d03e
00000220: f8b3 0dbf d8fb 3a3f 05f0 dd3e 3400 cdbb
00000230: e83d 293f b4e3 853e 8424 9b3d e346 293e
00000240: 3fac 1cbf 738d 293b 1bc7 ce3e 40e7 d03e
00000250: bdf8 b7be 1292 293f f9ae 8b3e de38 8f3e
00000260: 39c4 7f3e d3eb 823d 7492 d83e 44d7 9b3e
00000270: 4a85 023c 3325 883d ade7 153f 0953 dd3e
00000280: 078f 65be e85d c73d 5ab1 db3e f40f ccbe
00000290: e65e 1c3f a901 cdbd c873 0e3f ef7e 3f3e
000002a0: fca1 973e d8ea 95be c3d9 f03e 2880 36bf
000002b0: 4fb0 d93e cfed 48bf 10fe 96bb 3ecb 783e
000002c0: a5c6 3ebf 5474 b3be 1a80 523e 3822 093f
000002d0: 6330 1b3e 791e cbbe e082 de3e 7972 54bd
000002e0: 5072 28bf 35d8 453e 9f54 223f 4ab1 ce3d
000002f0: efda be3e a28f cc3e cd34 b63e c90b 2b3f
00000300: 74e1 4e3f 863d a83e c0a4 113f 31a8 d93e
00000310: 4d0f 543f fd4b 3ebf ed23 49bf d24b ef3e
0.047618605 -0.045170955 -0.27256536 -0.041928865 -0.076433845 0.4942184 0.3676616 -0.38771227
0.62333965 0.7449962 0.8672255 -0.11506185 0.55460536 0.31080586 0.3672163 0.15975851
0.20416379 0.38665637 0.75320184 0.7878328 -0.06670084 0.12011016 0.19970392 -0.8514293
-0.71682715 -0.042399008 0.41965353 0.21030286 -0.17673701 0.37616152 0.17498781 -0.037146393
-0.005704612 0.0140239885 0.5148704 0.80462945 0.076023616 0.078666076 0.5992032 0.323922
0.52484095 0.19758272 -0.23199458 -0.82503206 0.44358253 -0.28263122 -0.69073087 0.5959592
0.29010004 0.6723683 0.5974881 0.3058119 0.60094434 0.50346667 0.44727325 -0.021235052
0.49074882 0.31474945 -0.3039652 0.18397349 0.7225047 -0.17564887 -0.74371177 0.27309424
0.7590362 -0.035203815 0.157034 0.30839106 -0.045044195 0.3646851 0.8467856 0.34337658
0.3806263 0.1434835 0.12201086 0.25296843 0.24395682 0.7679417 0.29902777 0.7212635
-0.7255076 0.46590084 0.39958587 0.2516498 0.6299666 0.51759326 0.4199658 -0.1804293
0.22634621 0.5660814 0.5338677 -0.28163987 -0.12691955 0.5025918 0.4385097 0.32256293
0.7219379 0.4219898 0.09010524 -0.14863074 0.45515537 0.41999722 0.65801996 0.6361571
-0.090593174 0.4873798 0.45943958 0.453656 0.7412497 0.083435826 0.027372148 0.4255162
0.36617777 0.3997615 0.3642508 0.1492254 -0.5480304 0.26582155 -0.24840672 0.17106295
0.39860532 0.090757035 -0.09853242 0.6970958 0.1869861 0.49870592 0.17444298 0.20906024
-0.22400309 0.25967035 -0.1627334 0.23534644 -0.4388197 -0.79248 -0.35733306 0.40680942
-0.55352736 0.73040533 0.43347183 -0.0062561277 0.66110086 0.26150286 0.07575324 0.16530947
-0.61200327 0.0025871664 0.4038628 0.4080143 -0.3593196 0.6623851 0.2728193 0.27973074
0.24977197 0.06392636 0.42299235 0.30437672 0.007966349 0.0664772 0.58556634 0.43227413
-0.22417842 0.09734708 0.42908746 -0.3985592 0.61082304 -0.10010082 0.5564542 0.18700765
0.29615772 -0.29280734 0.4704114 -0.712893 0.42517325 -0.7848787 -0.0046079233 0.2429628
-0.7452186 -0.3504969 0.2055668 0.5356784 0.15155177 -0.39671686 0.43459225 -0.051866982
-0.6579943 0.19320758 0.6341037 0.10092409 0.37276408 0.39953333 0.3558716 0.6681486
0.80812764 0.3285944 0.56892014 0.42511132 0.8283585 -0.743347 -0.78570443 0.46737534

layer2.weight f4 [100, 200]
00000000: 982f 343e e284 43be 2e17 0b3e aa92 9cbd
00000010: 44cc c4bc 5e79 8c3e a958 a13d 4881 3dbe
00000020: d522 a83e 33f7 cf3e a6f7 0f3f 4fc7 9abc
00000030: b59d fc3e 396d a33e 8459 d83e 4288 85bd
00000040: a91c 713e 0fc9 b83e 3711 023f a28d 063f
00000050: a7f6 e8bd 62fa 983e 8411 183d 2e0e a0bd
00000060: d915 14bf db41 4e3e b59e 903e 5686 e63d
00000070: 0397 1fbf b386 263e 5922 a13e 56f0 733e
00000080: aaae 84bd 922d 3ebd 86e8 9d3e 4d3f ef3e
00000090: af80 03be 8a8c 98bc 6642 fd3e 13bc 8c3e
000000a0: 4c15 f53e 8635 d43d edd3 313c 7b2b 8d3e
000000b0: f972 df3e f153 a93d b8f3 09bf b3d4 b33e
000000c0: 8c13 a53e 596c 0e3f dc6a e43e 597d c53e
000000d0: 70df aa3e 8267 d33e 48dd 983e 6b71 3b3e
000000e0: 266b b63e bc40 cc3e b472 68bd 05dd 2e3e
000000f0: f82d fa3e 2b88 7b3e 5e20 fbbe 0b04 1ebd
00000100: 34ce 0b3f f78c b63d 667f 953e 8620 2a3e
00000110: b7f7 023e 2e14 0b3f bafd 123f 13fe 933e
00000120: bd81 893e 6fde af3e 4612 8b3e 717d 893e
00000130: f5d4 a43e c2f2 043f a122 d63e 286a b73e
00000140: a826 06be f75f f13e 01df 003e ac8d 233e
00000150: e229 b83e bc53 b63e ccd7 c43e cc03 f6be
00000160: b76b da3e 7be7 f83e a12c ed3e bab0 fa3d
00000170: 64c8 353d f4ff b73e 6a31 a93e db5d 423e
00000180: dcb6 d33e 2d00 a13e fafc 2c3e 16c3 dabd
00000190: cf4a 633e 1afd 453e 00df ae3e 668b df3e
000001a0: 8124 3f3d 3785 453e f073 9c3e 3975 b73e
000001b0: 9137 ed3e a0c7 973e e45f 5c3e b3b6 043f
000001c0: 1163 a83e f946 903e 213c 943e 7d03 a13e
000001d0: f37d 983e b924 1a3e 7aa1 07be d294 453e
000001e0: d7cb 903e cea8 4abe a56f 233e 5b7e e63e
000001f0: d8df d83e 1410 c43e a012 cd3d cece ba3e
00000200: 2654 48be 13fb c73e 0cbe 17bd 6fb8 383d
00000210: 26a7 22bd 42d8 97bd ee1e 2abe 18fc b73e
00000220: b7e7 00be 3b28 d03e 3d47 dd3e cc64 b23d
00000230: ce58 ef3e 055b b53e 93ab 893e f441 8e3e
00000240: fa22 05be 8df1 a23c d7d1 ac3e 93c6 6e3e
00000250: 38c5 a1be 8752 fa3e 5e85 a73d 382d 943e
00000260: e483 833e ca45 903c fa78 3b3e 657a 593e
00000270: 21e2 673e 317b a73e fea1 c53e 1ef2 9a3e
00000280: b739 593e a680 7d3e 24ae d73e 155b b73d
00000290: e53f ce3e cb81 3d3e bb7e ba3e 62c4 dc3e
000002a0: ded2 5a3e c0fe 0bbe dbf3 d53e 9655 c5bc
000002b0: bade d53e 6354 faba 99dd 6cbe 5494 783e
000002c0: 9775 cebc b261 09be 011c b53e c521 ad3e
000002d0: 8d6f d93e 062f d6be 0fa2 aa3e ef7f a9bb
000002e0: 9b88 43bf 99dd 3f3e 5da4 9c3e b566 fcbc
000002f0: bcdf 8d3e 2241 eb3d 0fb4 303e a073 f63e
00000300: 369a 143f 9505 ad3e 7031 db3e 4090 ba3e
00000310: 61ae 1e3f 6886 1abf 9b15 74be 48ba cd3e
00000320: 5706 433e 4310 e9bd 7c24 9b3d 70ed 0bbe
00000330: c101 b6bd 1a62 b83e db3e 873d d020 73be
00000340: 240c cc3e 5528 b43e 1bdf 0d3f 8c27 45bd
00000350: 40ad f23e 789f ac3e 3419 983e cd4a a2bd
00000360: 9049 efbd 3aa4 a03e 8d13 0d3f 96f0 053f
00000370: 1158 15be e971 5d3e db41 483d 3069 afbe
00000380: 1309 06bf 4fa2 81bd bd09 9c3e 4e58 133e
00000390: c8cb d4be 3750 1e3e 6fbc ba3c ff27 303e
000003a0: b233 a2bd d423 35bd 31ef c93e 5858 f23e
000003b0: 8628 48bd 32ea 33bd aa04 d03e 97f7 963e
000003c0: 6fba c23e 0171 0d3e de3c 80bd 837f 03be
000003d0: f495 de3e 540e 49be 27f7 1abf b083 b03e
000003e0: 0a6b 933e f271 cd3e a442 d73e 4cea be3e
000003f0: 2ee6 b83e 4338 b33e 9aa3 9c3e cdf9 4f3e
0.1759628 -0.1909366 0.13583061 -0.076451614 -0.024023183 0.27436346 0.07878239 -0.18506348
0.32839075 0.40618286 0.56237257 -0.018893866 0.4933907 0.31919268 0.42255795 -0.0652013
0.23546089 0.36090896 0.5080752 0.52559865 -0.1137517 0.29878527 0.03712608 -0.078152046
-0.57845837 0.2014231 0.28246084 0.11256091 -0.623398 0.16262321 0.31471518 0.2382215
-0.06478627 -0.046430178 0.30841464 0.46727982 -0.12842058 -0.018621702 0.4946472 0.2748724
0.4786781 0.10361771 0.01085375 0.27572235 0.43642405 0.08267964 -0.5388751 0.35123214
0.32241476 0.55634075 0.44612777 0.38572195 0.33373594 0.41289908 0.29856324 0.18304984
0.35628623 0.39893138 -0.056750014 0.170765 0.48863196 0.24563663 -0.49048132 -0.038578074
0.54611516 0.08913606 0.2919876 0.16613969 0.12789808 0.54327667 0.57418406 0.2890478
0.26856795 0.3434939 0.2716238 0.26853517 0.32193723 0.5193292 0.41823295 0.35823178
-0.13100684 0.47143528 0.12585069 0.15972012 0.35969454 0.3561076 0.3844589 -0.48049772
0.42660305 0.48614106 0.46323112 0.12240739 0.04438056 0.35937464 0.33045512 0.18981116
0.41350448 0.31445447 0.16893378 -0.10681741 0.22196506 0.19334832 0.3415451 0.4366104
0.046665672 0.19289099 0.30557203 0.3583162 0.46331456 0.2964449 0.21520954 0.51841277
0.32888082 0.28179148 0.28952125 0.31447974 0.29783592 0.15053071 -0.13245192 0.19295052
0.28280517 -0.19790956 0.15960558 0.45018277 0.4235828 0.38293517 0.10013318 0.36485904
-0.1956335 0.39058742 -0.037046477 0.045097765 -0.039710186 -0.07414295 -0.16613361 0.3593452
-0.12588392 0.40655693 0.43218413 0.08710632 0.4674744 0.35421005 0.26888713 0.27784693
-0.13001624 0.019890571 0.33753845 0.23317938 -0.31595778 0.48891088 0.08179735 0.2894075
0.25686562 0.017611403 0.18307868 0.21238096 0.22644855 0.32711175 0.38600153 0.30262846
0.21213423 0.24756107 0.42125046 0.089529194 0.40283123 0.18506543 0.36424813 0.43118578
0.21369502 -0.13671398 0.4178761 -0.024088662 0.4177149 -0.0019098636 -0.23131408 0.24275333
-0.025202556 -0.13416174 0.35372928 0.33814827 0.4246792 -0.4183275 0.33326766 -0.0051727216
-0.7638032 0.18736877 0.3059415 -0.030810693 0.27709758 0.114870325 0.17256187 0.4813509
0.5804781 0.3379332 0.42811155 0.3643818 0.6198483 -0.6036134 -0.23836367 0.40181184
0.19045387 -0.11380055 0.07575318 -0.13664794 -0.08887053 0.36012346 0.066037856 -0.23742986
0.39853013 0.3518702 0.55418557 -0.048133418 0.47397804 0.33715415 0.29706728 -0.07924423
-0.11683953 0.31375295 0.5510796 0.5232023 -0.14584376 0.21625485 0.04889093 -0.3425994
-0.52357596 -0.06329786 0.3047618 0.14389154 -0.41561723 0.15460287 0.02279493 0.17202757
-0.07920016 -0.04422362 0.394403 0.47333026 -0.04886677 -0.043924518 0.40628558 0.2948577
0.38032863 0.13812639 -0.062616095 -0.1284161 0.4347378 -0.19634372 -0.60533375 0.3447547
0.28792602 0.40125996 0.4204303 0.3728813 0.36113113 0.35003862 0.30593568 0.20310135

layer2.bias f4 [100]
00000000: 3bd6 493f 765b 453f 806b 04bf 432f 543f
00000010: 62d4 3fbf 6bb7 483f 3241 553e 4727 3a3f
00000020: 0c67 cebe c471 593f 0d4f 5c3f 93b3 613e
00000030: 64b0 eabe 7265 11bf 5022 413f 0122 b8be
00000040: 9cfc 5f3f 8bae e83e 8035 fbbe 665c 5e3f
00000050: 9ae3 22bf ad7c cdbe 5bb6 08bf 7ad3 513f
00000060: 1be2 1dbf 62df bdbc 0f30 3f3f aae3 f73e
00000070: 4101 26bf bcf0 433f 1120 643f 1d62 e03e
00000080: c451 553f f194 dfbd f19b 583f fb64 eabe
00000090: 083d 533f ff25 523f 333a b5be 62c4 46bf
000000a0: d853 96be 4b72 553f c675 5e3f 851c 653f
000000b0: 1ea8 2b3f 86d1 f1be e5c8 14bf 91b4 383f
000000c0: e804 283f 3218 0ebf b9bb edbe 2515 9fbe
000000d0: 54fa 353f 6df7 2dbf 9a6e 05bf 0ada e7be
000000e0: d4de 363f 42dc d93e a89b 4b3f bac8 513f
000000f0: 93fb 1abf 7c5d 55bf 6bf5 5c3f f5d0 2abf
00000100: 9003 403f 033e e0be 7abb 9abe b1f1 3c3f
00000110: 86eb 27bf a07d 5b3f 6c13 d3be 1713 333f
00000120: b164 dcbe 75fe 033e 8487 15bf d110 543f
00000130: 75b5 403f eefc f3be 7163 44be 1d47 d5be
00000140: 030f 05bf 7e88 1dbf d87f 553f 5ec1 3c3f
00000150: 1a4c 413f 6fd8 34bf d7b3 28be 0ac1 473f
00000160: f2f4 2ebf 5dc5 4e3f 5799 2e3f 07ad 0dbf
00000170: dc9d 33bf 3ab7 423f 9bf4 fdbe 527e 4b3f
00000180: 1000 42bf e4af e1be 4917 10bf 2bca 2abf
0.78842515 0.77092683 -0.5172653 0.82884616 -0.74933445 0.78404874 0.20825651 0.7271618
-0.40312994 0.8493922 0.8605812 0.22041158 -0.458377 -0.5679542 0.7544298 -0.35963443
0.87494826 0.45445666 -0.49064255 0.8685974 -0.6362854 -0.40134183 -0.5340325 0.8196331
-0.61673135 -0.023177806 0.74682707 0.4841588 -0.64845663 0.76539207 0.8911143 0.43824854
0.8332789 -0.1091708 0.8461295 -0.45780167 0.82515 0.8208923 -0.35395965 -0.77643406
-0.29360843 0.8337752 0.8689846 0.8949664 0.670534 -0.47230166 -0.5811904 0.7215052
0.65632486 -0.5550567 -0.46432284 -0.3107082 0.71085095 -0.67955667 -0.5212189 -0.45283538
0.7143376 0.42550856 0.7953439 0.8194691 -0.6054012 -0.8334577 0.8631198 -0.66725093
0.75005436 -0.4379731 -0.30221158 0.7380629 -0.65593755 0.85738564 -0.41225755 0.69951004
-0.4304557 0.12890036 -0.58409905 0.8283816 0.7527688 -0.47653908 -0.19178559 -0.41655818
-0.5197603 -0.61536396 0.833982 0.73732555 0.75506747 -0.7064275 -0.16474853 0.7802893
-0.68342507 0.807699 0.6820273 -0.55342144 -0.7016275 0.7606083 -0.49600682 0.79489625
-0.75781345 -0.44079506 -0.5628553 -0.66714734

out1.weight f4 [3, 100]
00000000: e607 163f 4f6a 173f 710b 67be 023c 283f
00000010: 1854 14bf 0be9 fc3e b1d4 643e 054f 2d3f
00000020: 08d5 89bd b922 2b3f 345c 1c3f 0a67 7c3d
00000030: 500c b63e acd4 a4be 5069 253f cd63 62be
00000040: 69d6 313f 1832 083f ada2 58bf 3e8a 0d3f
00000050: a2b6 88bd 9033 88be f51a bfbe bf26 0e3f
00000060: 9207 6f3f 480f 5ebe da1d 2a3f aa90 0c3f
00000070: b580 8cbe f4e3 123f 720e 323f 44e1 043f
00000080: 4a9d 063f 0dfb 85bc a2af 073f 5af0 bebd
00000090: 04a5 263f d9b2 323f 9d23 313d b8f6 43be
000000a0: 7ead f23e 2782 2b3f 9d99 0d3f 1e8c 183f
000000b0: 85c5 fc3e 7392 c1be 9e48 d23b 664f 243f
000000c0: 7dd9 123f 9682 a7be c210 c33e 9042 db3e
000000d0: 5d8a f63e db27 523e 1eb1 b3be 8cd6 7ebe
000000e0: e116 233f de24 d03e b045 193f fd22 313f
000000f0: f69d b1be ad2d 19bf 1a21 183f 2a81 27be
00000100: 7e31 2b3f 4384 73bf 5f1c 983e fb99 1d3f
00000110: 1c7a 35bf 911d 313f 3a74 e3be 7a39 0f3f
00000120: 518b 9dbe d2ac b83e 5a56 4fbe 30c2 293f
00000130: a1eb 2f3f cd4f a3be 56d4 063f 17c2 6fbe
00000140: db66 b53e c8de 35bf d45b 163f 0764 2f3f
00000150: 18f4 1f3f b463 c8bd 359f 333e 618d 233f
00000160: a63a eebd 53cc 123f cdd2 da3e 4570 aebe
00000170: 15a5 f8bc 1044 023f cfcf 4ebe b3aa 233f
00000180: 4f1d 913e 28c6 41be 81a0 5abe 1764 bd3e
00000190: 90cc 8b3e caa2 d13e 52ac 0bbe 650d 7d3e
000001a0: a754 8dbe 9303 c13e ece8 c43d c3cd 9a3e
000001b0: 657f 79be c90e a93e 6f28 c33e b217 20be
000001c0: ba77 053f 1231 a7bd cf20 a73e a6cc e4be
000001d0: 12b4 ea3e 1d1f 313e c0e8 83be a85b d83e
000001e0: 48a4 b4b9 a6a2 463e 3fca d9bc cf8f d73e
000001f0: 3bd3 f83e cd8e 1d3e 0685 913e d636 693e
00000200: 0306 c9bd da8e b63e 1871 883e efec 9f3e
00000210: e888 dd3e d782 9abe 205d d73e d3eb 7abc
00000220: 28ff d13e 56b2 b73e c5dc 7d3e e23c 953b
00000230: 3e08 143f f22e dd3e 865d a43e 2e00 963e
00000240: 3587 503e 8337 c2bc 09b7 593e ce85 ce3e
00000250: 6932 a23e aa62 23bc e8ce ce3e b914 cc3e
00000260: 4797 673e 507a d23e a82a aabe 0a9b 96bd
00000270: 963d bf3e 36c7 283e ff66 ac3e e12e b93e
00000280: 1e41 b53b a478 ccbe e132 c93e dd64 273d
00000290: e1f1 833e 67e2 c6bd f9a7 da3e d0c0 ae3e
000002a0: 1700 b3be 8c7f 923e f450 9ebd 4bf3 6b3e
000002b0: ee72 dbbe 487f c73d 268b f63d 496b 7c3e
000002c0: fb6c c13e 7ede a3bd 12ba 6a3e 8a6a bfbe
000002d0: c127 053f b9a7 673e 7973 853e 6cc2 d53e
000002e0: 4c60 983e 54d7 30bc 3d13 e63e ac9c bf3e
000002f0: a327 f3bb a205 8c3e 0f33 953e ee1c 2bbe
00000300: 4053 823d 39bb a43e 15ea 7ebd 8178 9b3e
00000310: 07ef 093f 549e b3bc 0b8f 113d d732 2d3f
00000320: a77c 9c3e 179f 993e b984 03be 275a 623e
00000330: 7aaa 97be 7b71 503e 6784 b6bd 0d67 4f3e
00000340: dfeb 3cbe 9cba 803e f564 9f3e 7e3c 3ebd
00000350: 5fe7 033f f154 32bc 07b7 a93e bf34 95bd
00000360: a533 c13e 5383 ae3d 37b8 a13e bd0d 8d3e
00000370: 86e9 2ebd f030 153e 82de a9bd 7ab3 433e
00000380: fe3a 493e 911f cd3e d42a 843e 5fb0 033e
00000390: 7495 33be d6e0 903e c508 9c3e b739 db3d
000003a0: a904 9f3e 0141 79bd 5710 763e 2c42 4d3c
000003b0: 7fcb 133e c6d3 7e3e 3408 db3e 6a00 c3bd
000003c0: 65cc fc3e 3733 7c3e 2006 663e 0bda b53e
000003d0: 6750 923e 6cd0 143e 1c94 cd3d b1fa 7a3e
000003e0: 8a01 583e 500d 47bc 1c4a 073d 47af 133f
000003f0: 01db 363e c765 1f3e d619 b1bc 628d bd3d
0.586058 0.5914659 -0.22562958 0.65716565 -0.57940817 0.49396548 0.2234676 0.676987
-0.067300856 0.6684986 0.6107819 0.061621703 0.3555627 -0.32193506 0.6461382 -0.22108383
0.6946779 0.53201437 -0.84623224 0.55289066 -0.066754594 -0.2660184 -0.37325254 0.5552787
0.93370926 -0.21685517 0.664518 0.5490824 -0.27441946 0.5737908 0.6955329 0.5190623
0.52583754 -0.016355062 0.5300237 -0.09323187 0.65095544 0.6980415 0.043246854 -0.19137084
0.4739799 0.6699547 0.5531252 0.595888 0.49369445 -0.37807044 0.006417348 0.6418365
0.5736311 -0.32716817 0.38098723 0.4282422 0.48152438 0.20523016 -0.35096067 -0.2488653
0.63706785 0.40653127 0.5987196 0.6919401 -0.34690827 -0.5983532 0.5942551 -0.16357866
0.66872394 -0.9512369 0.29709145 0.6156308 -0.7088945 0.6918574 -0.4442461 0.5594708
-0.30770352 0.3606935 -0.20247784 0.6631193 0.68718916 -0.3189682 0.5266775 -0.23413883
0.35430035 -0.7104306 0.5873387 0.68512005 0.6248183 -0.09784642 0.17541201 0.638876
-0.1163228 0.57343024 0.42738953 -0.3407003 -0.030352155 0.50885105 -0.2019646 0.6393234
0.28342673 -0.18923247 -0.2135029 0.36990425 0.27304506 0.4094451 -0.13639954 0.24712141
-0.27603647 0.3769804 0.09614739 0.3023511 -0.24365003 0.33019093 0.38116786 -0.15634039
0.52135813 -0.08163656 0.32642218 -0.44687384 0.45840508 0.17297025 -0.25763512 0.42257428
-0.00034454674 0.19397983 -0.026585696 0.42101905 0.48598656 0.15386505 0.284218 0.22774825
-0.098156 0.35655862 0.26648784 0.31235453 0.43268514 -0.30177948 0.42063236 -0.015315014
0.4101498 0.35878247 0.24791248 0.004554377 0.57825077 0.4319988 0.32102603 0.29297012
0.20364077 -0.02370811 0.21261229 0.4033646 0.31679085 -0.009972254 0.40392232 0.3985956
0.22616301 0.41108942 -0.3323567 -0.0735379 0.37351674 0.16482243 0.3367233 0.36168578
0.005531444 -0.39935791 0.3929663 0.040867675 0.25770476 -0.097111516 0.42706278 0.3413148
-0.34961006 0.28612936 -0.07730284 0.23042028 -0.42861122 0.09741074 0.12038259 0.24650301
0.37778458 -0.080014214 0.22922543 -0.3738597 0.52013785 0.22622575 0.2606466 0.41749895
0.2976097 -0.010793526 0.44936553 0.3742422 -0.0074204965 0.27348047 0.29140517 -0.16710255
0.06363535 0.3217409 -0.062234957 0.30365375 0.5388035 -0.021926083 0.035536807 0.676557
0.30563852 0.30004188 -0.12843598 0.22104703 -0.2962225 0.2035579 -0.089119725 0.20254155
-0.18449353 0.25142372 0.31131712 -0.04644441 0.5152492 -0.010884509 0.3314745 -0.07285451
0.37734714 0.08521142 0.31585857 0.27549544 -0.042703174 0.1456945 -0.08294393 0.19111434
0.1965141 0.40063146 0.25813925 0.12860249 -0.1753748 0.28296536 0.3047544 0.107043676
0.31058243 -0.06085301 0.2402967 0.012527984 0.14433096 0.24885473 0.42779696 -0.09521563
0.4937469 0.24628912 0.22463274 0.35517916 0.28576967 0.14532632 0.10038015 0.24509694
0.21094337 -0.01214917 0.03302966 0.57689327 0.17856981 0.15566169 -0.021618765 0.09255482

out1.bias f4 [3]
00000000: f9b2 8f3f 4339 9d3f d92d 8a3f
1.1226493 1.22831 1.0795242

out2.weight f4 [3, 100]
00000000: f8d1 ee3e 9aec 9c3e eec4 0dbe 8f4e f73e
00000010: 2b1a c2be 1758 d63e 0953 433e ceba d03e
00000020: 93f0 b1be 5f5c f63e ef89 ca3e ef1e 38bd
00000030: f4ba 103f 61fc 8cbe f8ae f93e 8722 83be
00000040: 65bd d03e c392 4f3e b904 30be 98e4 b73e
00000050: 792b d3bb 23a7 19be 58e0 9dbe 2024 ed3e
00000060: c940 003f 21d3 1c3e 5e82 cb3e 976c cd3e
00000070: a86f 82bd 7519 e73e 99f1 eb3e fa24 bc3e
00000080: 6dba d33e f612 44be 5f80 e43e 64bb d63c
00000090: 8cda ef3e 233a f93e 455e d53e 4955 29bc
000000a0: 7cd7 133f 740a e13e abb7 fa3e 23dc 033f
000000b0: 699e f63d bc8b 60be 59d9 27bb fb58 e13e
000000c0: 0a4f 823e 05c2 84be 44ec c0bd 2871 0d3f
000000d0: f2e6 363e 543a 3f3e b530 61be ba1b 82be
000000e0: b022 873e bb93 133e 7e43 e73e 9b1a d33e
000000f0: 02fe 86be 7834 c0be 13df f53e 494a cbbd
00000100: 42ad e53e 3976 81be de2a 103f 0abb d93e
00000110: 7be3 7abe 365c f03e 0dc4 a1be cbf4 e33e
00000120: f965 97be 8e01 933d de74 893c edf4 f43e
00000130: 440c e83e 205c 46be 127c 0abe ae33 5bbe
00000140: 1f76 e13e de4c 3abd f491 e23e 664d f33e
00000150: 9057 de3e 61e5 6ebd bcde 2e3e 0e7a e43e
00000160: ab45 c1bd 89da 873e 7690 473e 45d3 73be
00000170: 2a11 d63d e5c0 c63e 5501 21be bfb9 e83e
00000180: 3f40 853e ba0f 20be 77a6 59be 0477 de3e
00000190: f94d ae3e 6e40 bd3e 6b42 04be a0a5 d13e
000001a0: 72bd babe ba0f 9a3e bede 983c 659d a93e
000001b0: 2467 c2be 3fed b13e bd55 b83e edfc aebd
000001c0: ef4e da3e a3fe ffbd 35bd 853e 249e 53be
000001d0: ea54 d83e 1a41 ac3c d140 dcbc 21f6 d23e
000001e0: 8062 b03d 2a69 c03d 4613 65be bc90 983e
000001f0: 6609 f33e 5236 0b3e fb57 bb3e cf00 053e
00000200: 2ab4 cbbd 6d79 7e3e 3328 c43e f109 b53d
00000210: 3f2f c63e d916 8cbd 46a9 d13e 9bda 0d3d
00000220: 1849 8b3e f8a2 b73e aa73 dd3e 2d93 63bc
00000230: 6769 153f 356a 9c3e c24f b43e 5428 a03e
00000240: 4e72 8a3e a0b1 03be 0d04 07bb c8e7 8a3e
00000250: 49c5 2b3e a568 41be 61b3 15bc 260d 053f
00000260: b97b 613e b04e a73e c1b4 31be a88c f8bd
00000270: 30fe 1c3e c87e 903d 30f6 b13e 4ed1 d83e
00000280: e64b 3dbe d615 a7be c1ea b13e 5659 0dbe
00000290: 59c0 b63e b8ad 683d 558a 033f cc1a aa3e
000002a0: f6e0 9bbd a476 c13e b4c4 a6bd e472 6c3e
000002b0: 1b3a c7be 7d7d c0bd d344 9d3d fc49 c03e
000002c0: 1ceb 5a3e a897 c6bb 0115 b73c 8e9b e0be
000002d0: 0d4f 093f 5375 9f3e 987a 993e 472d 583e
000002e0: c9b4 ba3e 6b66 0c3e a215 a43e 937b aa3e
000002f0: 6479 e7bd a41c 9f3e 0669 683e 6016 febc
00000300: 6cb8 a7bd 7d77 923e 4718 c2bd 8390 9f3e
00000310: f36c 9e3e 9d2a fbbc a8b1 c8bd 3cd1 c03d
00000320: c06d 573e a992 313e c8f4 94be 1909 b73d
00000330: d2d9 a1bd 6a95 083d 4d60 c8be ef09 263e
00000340: 878a c5be e973 5c3d 6e31 b43d 867c fdbd
00000350: 5ddd 2a3f 487b 24be 7b7d e33d 9ca1 9cbd
00000360: 2354 643e a742 17be d836 973e f6aa 2f3e
00000370: e9d4 64bd bf62 dcbe 3476 53be 4179 243d
00000380: 3cda 38be 6edf 903e ec62 eb3d a6da bebc
00000390: 9905 2dbe b337 5b3e 2d48 793e 0867 e0bc
000003a0: 4672 573e cb67 c5be 27a5 e03d eaa1 dfbd
000003b0: eb80 e03d 7741 243e 6c85 ee3e 27bc 9bbd
000003c0: 064b 273f fb5f 4d3e 275c a33d bd55 233e
000003d0: ccf3 8a3d aa01 93be aa9b 85bd 3a28 253e
000003e0: c65b 3fbd dc0c 63be 86df 51bf 2b1c 4b3f
000003f0: 2a2a 40bd 80cf 2fbe f8e5 0dbe 4adf 79be
0.46644568 0.30649263 -0.13844654 0.48302123 -0.3791059 0.41864082 0.19074644 0.4076752
-0.34753856 0.4811735 0.3955836 -0.044951376 0.5653527 -0.275363 0.48766303 -0.2561228
0.40769497 0.20270829 -0.17189302 0.3591659 -0.0064443913 -0.15005164 -0.30835223 0.46316624
0.50098854 0.15314914 0.397479 0.4012191 -0.06368953 0.4513661 0.46082762 0.3674696
0.4135317 -0.19147858 0.4462919 0.026212402 0.46846426 0.48677167 0.41673484 -0.010335275
0.5775068 0.43953288 0.48968253 0.51507777 0.12041933 -0.21928304 -0.0025611727 0.440132
0.25450927 -0.25929275 -0.09420064 0.5525079 0.17861536 0.18674594 -0.21991237 -0.2541178
0.26393652 0.14411823 0.4516868 0.41231236 -0.26365668 -0.3754003 0.48021755 -0.09926278
0.44858748 -0.2528551 0.5631541 0.42525512 -0.2450084 0.4694535 -0.31594887 0.445227
-0.29569986 0.07178031 0.01677936 0.47843114 0.45321858 -0.1937108 -0.13523892 -0.21406433
0.44035432 -0.045483463 0.44251978 0.47519988 0.4342618 -0.05832422 0.17077154 0.4462437
-0.09437116 0.26533917 0.19488701 -0.23811062 0.104524925 0.38819042 -0.15723164 0.45454213
0.26025578 -0.15630999 -0.21254908 0.43450177 0.34043863 0.36963218 -0.12915961 0.40946674
-0.3647266 0.30090123 0.0186609 0.33127895 -0.37969315 0.34751317 0.36002913 -0.085443355
0.42638347 -0.1249974 0.26120916 -0.20665795 0.42252284 0.021027137 -0.026886376 0.41203406
0.086125374 0.093950585 -0.22370633 0.29797924 0.47468108 0.1359494 0.3659056 0.1298859
-0.09946473 0.24851008 0.3831192 0.08839787 0.3870792 -0.06840295 0.40949458 0.034632307
0.27204204 0.35866523 0.43252307 -0.01389007 0.58363956 0.3054978 0.352171 0.31280768
0.27040333 -0.12860727 -0.002060178 0.2712996 0.16774477 -0.18887575 -0.009137006 0.5197319
0.22019853 0.3267722 -0.17354108 -0.12136203 0.1533134 0.070554316 0.3475814 0.42347187
-0.18485984 -0.32633847 0.34749416 -0.1380361 0.35693625 0.056806296 0.5138295 0.3322357
-0.07611267 0.37785828 -0.08142987 0.23090702 -0.38911518 -0.09398935 0.07679143 0.37556446
0.2137875 -0.0060605593 0.022348883 -0.4386868 0.53636247 0.311442 0.29976344 0.21111022
0.36466053 0.13710944 0.32047755 0.33297405 -0.1130245 0.3107654 0.22696313 -0.031016529
-0.081894726 0.28606787 -0.09477287 0.3116494 0.30942497 -0.030659968 -0.0979951 0.09414908
0.2103796 0.17341103 -0.29093003 0.08937282 -0.07902874 0.033345617 -0.39135972 0.16214727
-0.3858225 0.053821478 0.087984905 -0.123772666 0.66744024 -0.16062653 0.11107918 -0.07648012
0.2229772 -0.1477152 0.2953403 0.1715506 -0.05586711 -0.43044087 -0.2065056 0.0401547
-0.18052 0.28295463 0.11493477 -0.02329762 -0.16896667 0.21407966 0.24343939 -0.02739288
0.21039686 -0.3855575 0.10969 -0.109195545 0.10962089 0.16040598 0.46586168 -0.076042466
0.6534885 0.20056145 0.07976561 0.15950675 0.06784782 -0.28712207 -0.06523831 0.16128626
-0.04671838 -0.22172874 -0.81981695 0.79339856 -0.04691521 -0.17168999 -0.13857257 -0.24401584

out2.bias f4 [3]
00000000: 15dc 953f 3ba3 9c3f 9db1 533f
1.1707789 1.2237314 0.8269289
