Fibrosis_EDA_model1.bin (torch, 93381 bytes, 8 tensors)

layer1.weight f4 [200, 9]
0	0x3ea4ecbe	0.3221187
1	0xbe7e5809	-0.2483827
2	0xbad95f1b	-0.001658413
3	0xbf183d3e	-0.5946845
4	0x3f14d1fd	0.58132917
5	0x3f4e9563	0.80696696
6	0x3f504677	0.8135752
7	0x3f0f1186	0.55886114
8	0x3eae7b9c	0.3407868
9	0xbe42a15e	-0.19006869
10	0xbea20e55	-0.3165156
11	0xbddab6fd	-0.106794335
12	0x3d3fa2ad	0.046786
13	0xbf480ac9	-0.78141457
14	0xbef1e4d8	-0.47244906
15	0xbea886d8	-0.32915378
16	0xbe14f9f1	-0.1454847
17	0xbed24f0f	-0.41075942
18	0x3ed6c15d	0.419444
19	0x3e04fbcf	0.12986682
20	0xbc4d27f1	-0.01252173
21	0xbed62b5d	-0.4182996
22	0x3f3167e9	0.6929918
23	0x3e3677c0	0.17819118
24	0x3f455a54	0.77090955
25	0x3f0ac9d5	0.5421422
26	0x3e2addaa	0.1668612
27	0x3d6292c1	0.055315737
28	0x3ebbce13	0.3668066
29	0x3efe7a49	0.4970267
30	0xbe9190a8	-0.28430676
31	0x3ed757ef	0.42059276
32	0x3e938b6d	0.2881731
33	0x3ec141f8	0.37745643
34	0x3ef94df1	0.48692277
35	0x3d2f5706	0.0428076
36	0xbf224a5e	-0.63394725
37	0x3db17590	0.086650014
38	0xbe60ac98	-0.2194084
39	0xbef56e1d	-0.47935572
40	0xbe8007eb	-0.2500604
41	0x3f2a53c6	0.6653408
42	0x3f789ae6	0.97111356
43	0x3d92f6a5	0.0717595
44	0x3dc69f85	0.09698395
45	0xbe5d04d2	-0.2158387
46	0x3f4ea47a	0.8071972
47	0xbe86a02f	-0.26294085
48	0xbe0a229b	-0.13489763
49	0x3d6546d2	0.055975743
50	0x3f0abec1	0.5419732
51	0x3f09c59c	0.5381715
52	0x3f494a32	0.7862884
53	0x3f0a890b	0.5411536
54	0xbdf25699	-0.118329234
55	0xbca18784	-0.01971794
56	0xbe1fcce1	-0.15605499
57	0x3f12c3ba	0.57329905
58	0x3e8a8fb3	0.2706276
59	0x3e241516	0.16023669
60	0x3efed680	0.49773026
61	0x3ed16121	0.40894416
62	0x3ed4831b	0.41506276
63	0xbebb4e05	-0.36582962
64	0xbdf65a85	-0.12028984
65	0x3e893883	0.26800928
66	0x3f16b671	0.58872133
67	0x3e97462a	0.29545718
68	0x3ee9ef07	0.45690176
69	0x3ecb3157	0.3968608
70	0x3ea310a4	0.31848633
71	0x3eacb434	0.33731234
72	0xbe63c4fd	-0.22243114
73	0x3ebc8399	0.3681915
74	0x3f1972c2	0.5994073
75	0x3ceda3fe	0.029008862
76	0x3f0436a7	0.5164589
77	0x3f22a002	0.635254
78	0x3d1d08e8	0.03833857
79	0x3e35725d	0.17719407
80	0x3f087eb2	0.5331832
81	0x3e77b6a2	0.24190763
82	0x3efddc3a	0.49582082
83	0x3eb68ce7	0.35654375
84	0xbba40ebe	-0.00500664
85	0xbeb5d269	-0.35512093
86	0x3f2239df	0.63369554
87	0x3ee82503	0.45340738
88	0x3e042f95	0.12908776
89	0x3e9992c9	0.299948
90	0xbf0a01b5	-0.53908855
91	0x3ec85a93	0.39131603
92	0x3e5cf17c	0.21576494
93	0xbf305d70	-0.68892574
94	0x3e422782	0.18960384
95	0x3ebd2be7	0.36947557
96	0x3f39a854	0.72522473
97	0x3f036b78	0.5133586
98	0x3ef96c5c	0.48715484
99	0x3ea40d96	0.32041615
100	0xbe109286	-0.14118394
101	0xbe9bcacf	-0.30428168
102	0x3e69aacb	0.22819059
103	0x3d9b3487	0.07578378
104	0x3e8ab862	0.27093798
105	0x3f7e00e2	0.992201
106	0x3f2b456d	0.6690281
107	0x3e200069	0.15625156
108	0x3ef59ef3	0.4797283
109	0x3bb4d6f1	0.005518787
110	0xbd9b16a4	-0.07572678
111	0xbef74d9a	-0.48301393
112	0x3ea70182	0.32618338
113	0x3da972d3	0.08273854
114	0x3ee48ff5	0.4464108
115	0xbe83f420	-0.2577219
116	0x3f10174c	0.5628555
117	0x3f12c9f8	0.5733943
118	0x3f02178f	0.508172
119	0xbd11dd65	-0.03561153
120	0x3ddfe5b8	0.10932487
121	0xbf4b3973	-0.79384536
122	0xbec52042	-0.38501173
123	0xbeaef01f	-0.34167573
124	0xbe025528	-0.12727797
125	0xbe76779f	-0.2406907
126	0x3e9936eb	0.29924712
127	0xbe774841	-0.24148656
128	0xbe9ddd05	-0.30832687
129	0xbe187e13	-0.14891843
130	0xbf821bf3	-1.016478
131	0xbf20fd3d	-0.6288641
132	0xbecc80e4	-0.39942086
133	0xbf002ae7	-0.50065464
134	0xbf336dc3	-0.7008936
135	0xbe2fa6d5	-0.17153485
136	0xbe954c2b	-0.29159674
137	0x3f2aa5ef	0.66659445
138	0x3ea80e81	0.32823566
139	0xbe296e13	-0.16545896
140	0x3e46a0aa	0.19397226
141	0x3ef088d6	0.46979398
142	0xbcc6f4ff	-0.024286745
143	0x3e59d484	0.21272475
144	0xbdb09be7	-0.08623486
145	0x3e4a3265	0.19745786
146	0x3e7a202e	0.24426338
147	0x3e18c598	0.14919126
148	0xbf192822	-0.5982686
149	0xbf0a1abc	-0.53947043
150	0xbea2f78a	-0.31829482
151	0xbf417fe8	-0.75585794
152	0xbe94941a	-0.29019243
153	0xbeec6898	-0.4617355
154	0x3f30ab5c	0.69011474
155	0x3de6118a	0.11233814
156	0x3e278d14	0.16362411
157	0x3e9bc6f5	0.3042523
158	0x3e972971	0.29523805
159	0x3cd1172c	0.025523745
160	0x3ddcf7b7	0.10789435
161	0x3f1e57b2	0.6185256
162	0xbe4d6936	-0.20059666
163	0x3e3e3308	0.18574154
164	0x3edfc69f	0.43706223
165	0xbe78bb8f	-0.24290298
166	0x3e0ad8d8	0.13559282
167	0x3f41cd58	0.75703955
168	0x3f371139	0.71510655
169	0x3f25d118	0.64772177
170	0x3f18905c	0.59595275
171	0xbe2427e5	-0.16030844
172	0x3ef8ee99	0.48619536
173	0x3e2d6f4c	0.16936988
174	0xbe2a0315	-0.16602738
175	0xbe539c94	-0.20665199
176	0xbbd4770e	-0.006483919
177	0x3d04b54b	0.032399457
178	0xbedd7ca6	-0.43259162
179	0xbeab06d3	-0.33403644
180	0x3f13a319	0.5767074
181	0x3ecc5097	0.39905235
182	0x3eaeb700	0.34123993
183	0xbe5db0ac	-0.21649426
184	0xbf087124	-0.5329764
185	0xbe7cdac0	-0.24692822
186	0xbf09feca	-0.539044
187	0xbe9bcad7	-0.30428192
188	0x3e0d6975	0.1380976
189	0xbe7c1ef4	-0.24621183
190	0x3e3f7b28	0.18699324
191	0xbea87892	-0.32904488
192	0x3f42ab4e	0.7604264
193	0x3ebfb6e7	0.3744423
194	0x3f1bfc8f	0.6093225
195	0x3f086d5c	0.5329187
196	0x3e0a0baa	0.13481012
197	0xbe30c761	-0.17263557
198	0x3ebd656a	0.36991435
199	0x3e47db57	0.19517265
200	0x3ecb8548	0.39750123
201	0xbe0e2a22	-0.1388326
202	0x3ea149d3	0.31501636
203	0xbce74a91	-0.028233798
204	0x3e9c90e5	0.30579296
205	0x3e3c5ee3	0.18395571
206	0x3cdac65d	0.026705915
207	0xbec5e67d	-0.3865241
208	0x3e510cd4	0.2041505
209	0xbe54c3db	-0.20777838
210	0xbe3e010e	-0.1855509
211	0xbf01c485	-0.5069049
212	0x3e535c0a	0.20640579
213	0x3f3eed07	0.74580425
214	0x3d612da2	0.05497516
215	0x3bee286d	0.0072680027
216	0x3e43d53f	0.19124316
217	0x3d7b7183	0.06138755
218	0xbdd5edbc	-0.10445735
219	0x3ebfd4f9	0.37467173
220	0xbf7bacd6	-0.983106
221	0xbf442d01	-0.7663117
222	0xbeb15171	-0.34632447
223	0xbf1c01f9	-0.6094051
224	0xbf079328	-0.5295892
225	0x3dcd5792	0.10026468
226	0xbdd6ea7d	-0.10493944
227	0x3f8839b9	1.0642616
228	0xbde0c117	-0.10974329
229	0xbc02a6f2	-0.007974373
230	0xbeffe695	-0.49980608
231	0x3e02764c	0.12740439
232	0xbdd1fa4c	-0.102528185
233	0x3d07534f	0.033038434
234	0x3e820713	0.25396022
235	0x3e7fad9a	0.24968567
236	0x3ebd138d	0.3692898
237	0x3ebfd23b	0.3746508
238	0xbc305412	-0.010762231
239	0x3e47ab0d	0.19498844
240	0x3e2d6463	0.16932826
241	0x3efffa80	0.49995804
242	0xbe987279	-0.29774836
243	0x3f70a0df	0.9399547
244	0xbe070994	-0.13187248
245	0x3e270119	0.16309012
246	0x3efb8cbe	0.49130815
247	0xbe0c49b3	-0.13699989
248	0x3e905102	0.28186804
249	0x3eaca61a	0.33720475
250	0x3eac3b39	0.33638933
251	0x3e240ec2	0.16021255
252	0x3ecbe037	0.398195
253	0x3d9773ac	0.073951095
254	0xbe81a8ee	-0.25324196
255	0xbeb13e0e	-0.34617656

layer1.bias f4 [200]
0	0x3f1d7f05	0.6152194
1	0xbed9be46	-0.4252798
2	0x3f1bb7eb	0.6082751
3	0x3f3e454f	0.74324507
4	0x3e27b0d1	0.16376044
5	0x3f384e39	0.7199436
6	0x3eb0d71f	0.34539124
7	0x3c1ac7b6	0.009447029
8	0x3f11789d	0.56824666
9	0x3e9b75a2	0.30363184
10	0x3e9a4250	0.30128717
11	0x3ef3eef1	0.47643235
12	0xbdd96a8d	-0.10616026
13	0xbe15cd26	-0.14629039
14	0xbec05780	-0.37566757
15	0xbe551c99	-0.2081169
16	0xbf67196e	-0.9027318
17	0x3e3432e5	0.1759754
18	0x3f20c875	0.62805873
19	0xbe964c0b	-0.2935489
20	0xbc614fd1	-0.01375194
21	0x3d927a5e	0.07152246
22	0xbec03953	-0.37543735
23	0x3d1898be	0.03725504
24	0xbf43d7c7	-0.76501125
25	0xbecbd440	-0.3981037
26	0x3e723c90	0.23655915
27	0x3e545fec	0.20739716
28	0x3e54ea30	0.2079246
29	0x3f2a8a71	0.66617495
30	0x3f190a3a	0.5978123
31	0x3e75f528	0.24019301
32	0x3ded9d6a	0.1160229
33	0x3f1b705e	0.60718334
34	0x3f190334	0.5977051
35	0x3f2889f4	0.658355
36	0xbc5ea3c3	-0.0135888485
37	0x3f0c9aad	0.54923517
38	0x3e4ff65a	0.2030882
39	0x3f0ce316	0.55034006
40	0x3f2ba6e9	0.6705156
41	0x3e53ea1c	0.20694774
42	0xbf5db919	-0.8661056
43	0x3eff944c	0.4991783
44	0xbee0fc9b	-0.43942723
45	0x3eae9914	0.34101164
46	0x3f2f1852	0.68396485
47	0xbe07b85e	-0.13253924
48	0x3cea6c25	0.02861602
49	0x3d20dd10	0.03927332
50	0x3e5d163f	0.21590517
51	0x3ee2b278	0.44276786
52	0x3ccaec37	0.02477084
53	0xbd8dc9f7	-0.06923287
54	0x3f3679ff	0.712799
55	0x3f1d883d	0.6153601
56	0x3f2e06d1	0.6797915
57	0x3b9e591b	0.0048323995
58	0xbe95c734	-0.29253542
59	0x3d4fd1d6	0.050737225
60	0x3e99c68e	0.30034298
61	0x3f2df646	0.6795391
62	0xbeaa0b1b	-0.33211598
63	0x3da901b5	0.08252279
64	0x3f30e8b1	0.6910506
65	0x3eaba9f7	0.3352811
66	0xbe2d8ce3	-0.16948275
67	0xbf811830	-1.0085506
68	0xbe8eab09	-0.27864864
69	0x3c05dba3	0.008170041
70	0xbf3843dc	-0.71978545
71	0xbe25a93b	-0.16177838
72	0x3ce7e491	0.028307231
73	0xbef32b33	-0.47493896
74	0x3ed34bb5	0.41268697
75	0xbbe76a53	-0.0070622354
76	0x3f0c8db4	0.5490372
77	0xbe2a880c	-0.1665346
78	0x3e8a70e5	0.27039257
79	0xbeed08d9	-0.46295813
80	0x3f1bc9a8	0.6085458
81	0x3e5ab01c	0.21356243
82	0xbe64b565	-0.22334822
83	0x3f0b4172	0.54396737
84	0x3ee7a89a	0.4524582
85	0x3ee82e61	0.45347884
86	0x3e62dde0	0.22154951
87	0x3f044b0f	0.5167703
88	0x3ec058e1	0.3756781
89	0x3f1848b7	0.59485954
90	0x3f3f1fb5	0.74657756
91	0x3e921151	0.28528836
92	0x3f30f7e3	0.69128245
93	0x3f30035e	0.6875514
94	0xbf478516	-0.7793745
95	0xbec4066b	-0.38286147
96	0x3ee26be4	0.4422294
97	0x3ee8b8d0	0.454535
98	0x3eee06a6	0.46489447
99	0x3ef5872a	0.47954684
100	0x3df94950	0.121721864
101	0x3f201759	0.62535626
102	0xbe214273	-0.15748005
103	0x3ef6e5bc	0.48222148
104	0x3f400ce3	0.75019664
105	0x3dc53e0f	0.09630977
106	0x3f4bef7c	0.796623
107	0x3e65ddc2	0.22447875
108	0x3f42195a	0.75819933
109	0xbe2543b3	-0.16139106
110	0xbe5938bf	-0.21213053
111	0x3f1255de	0.5716227
112	0x3ee29a8a	0.4425853
113	0x3df08684	0.11744407
114	0x3ed813c3	0.42202577
115	0x3f02a2a8	0.51029444
116	0x3e83abcf	0.25717017
117	0x3d7b9d7c	0.061429486
118	0x3f429ac6	0.76017416
119	0xbf0ace5d	-0.54221135
120	0xbf0dcacd	-0.55387574
121	0xbbbf6f8c	-0.005842155
122	0xbe840ece	-0.25792545
123	0xbf382545	-0.7193187
124	0x3e0254f2	0.12727717
125	0xbe7b4d86	-0.24541292
126	0x3dcadbf5	0.09905235
127	0x3ec6c3ad	0.38821164
128	0xbc901ccd	-0.017591858
129	0x3f02ff63	0.5117094
130	0x3f65e01b	0.8979508
131	0xbf0097fc	-0.5023191
132	0xbf002062	-0.5004941
133	0x3f524a8c	0.82145
134	0xbee054a8	-0.43814588
135	0x3e3a2d90	0.18181443
136	0x3f21b477	0.6316599
137	0xbd8ab181	-0.067721374
138	0x3f2d093f	0.67592233
139	0xbec06c30	-0.3758254
140	0x3e000197	0.12500606
141	0xbdbc15db	-0.09183856
142	0x3f5b0fd2	0.85571015
143	0x3e966f2f	0.293817
144	0x3e1191b7	0.14215742
145	0xbf13356d	-0.57503396
146	0x3f42ec84	0.76142144
147	0x3f02203e	0.5083045
148	0xbe8879cc	-0.26655424
149	0x3edfde82	0.43724447
150	0x3f044b95	0.5167783
151	0x3e1cdf31	0.15319516
152	0xbd853493	-0.06504168
153	0x3f4f785d	0.81043035
154	0x3f3c1732	0.73472893
155	0x3f37d8d6	0.7181524
156	0x3f462acf	0.7740907
157	0xbd2fcbfd	-0.042919148
158	0xbded5250	-0.115879655
159	0xbe9af2fd	-0.3026351
160	0x3e864c50	0.26230097
161	0xbc4730b0	-0.012157604
162	0x3f14fbf5	0.58196956
163	0x3ef4309d	0.4769334
164	0x3dbff64d	0.0937315
165	0xbf49acbc	-0.78779197
166	0x3cfb96e8	0.030711606
167	0xbe33530c	-0.17512149
168	0x3f54b3fb	0.8308713
169	0x3f0d15cf	0.551114
170	0x3f00af15	0.50267154
171	0x3f20447b	0.6260449
172	0x3c96a816	0.018390696
173	0x3e964371	0.2934833
174	0x3e273b8e	0.16331312
175	0x3ed1fb92	0.41012245
176	0x3e6f0eea	0.23345533
177	0xbdb95ebc	-0.09051272
178	0x3ef86a05	0.48518386
179	0xbd205b24	-0.03914942
180	0xbf80ee3d	-1.0072705
181	0x3e975add	0.2956151
182	0x3f4e85d8	0.8067298
183	0x3e721d5b	0.2364401
184	0x3e4246da	0.1897234
185	0x3ec0bcd3	0.3764406
186	0x3e60b391	0.21943499
187	0xbb87dc17	-0.00414611
188	0xbebb9d84	-0.36643612
189	0xbd8c0356	-0.06836574
190	0x3e1aa9d2	0.15103844
191	0x3e992948	0.29914308
192	0x3f577073	0.8415596
193	0xbdc0c290	-0.0941211
194	0x3e10b3dd	0.14131112
195	0x3f4f7960	0.8104458
196	0xbec5a094	-0.38599074
197	0x3eae9a79	0.34102228
198	0x3f269298	0.65067434
199	0x3ee92419	0.45535353

layer2.weight f4 [100, 200]
0	0xbf066a46	-0.5250591
1	0x3e75c201	0.23999788
2	0xbeaf0372	-0.34182316
3	0xbea92b26	-0.33040732
4	0xbe8c6a73	-0.27424964
5	0xbf086f4e	-0.5329484
6	0xbe880c0e	-0.26571697
7	0xbe158132	-0.14600065
8	0xbec4baff	-0.38423917
9	0xbe964d17	-0.2935569
10	0xbe88e52c	-0.26737344
11	0xbe9b2bf9	-0.30306986
12	0xbe8a6657	-0.27031204
13	0x3cbb029b	0.02282839
14	0x3eecf19a	0.46278077
15	0x3e591849	0.2120067
16	0x3e75c6a5	0.24001558
17	0xbe4d71b6	-0.20062909
18	0xbf035ac0	-0.5131035
19	0x3df4944e	0.119423494
20	0x3cb7ef49	0.022452967
21	0xbe7c0a29	-0.24613251
22	0xbdbff3bf	-0.09372663
23	0xbd971b7b	-0.07378288
24	0x3f1d2a2c	0.61392474
25	0x3e68caef	0.22733663
26	0xbe5b106a	-0.2139298
27	0xbe8a7686	-0.2704355
28	0xbe5b9f4a	-0.21447483
29	0xbf00702d	-0.50171167
30	0xbebe05c4	-0.37113774
31	0xbebf1532	-0.37320858
32	0x3e49c2d3	0.19703226
33	0xbe603928	-0.21896803
34	0xbef1b9b1	-0.47211984
35	0xbf17ce8f	-0.5929956
36	0xbdf29487	-0.118447356
37	0xbe986b06	-0.29769152
38	0xbe2e0c89	-0.1699697
39	0xbecbb9c1	-0.39790156
40	0xbe70bd75	-0.23509772
41	0xbeccb745	-0.39983574
42	0x3f216d5b	0.6305749
43	0xbf073499	-0.5281463
44	0x3e3cb489	0.18428244
45	0xbeea7f52	-0.45800263
46	0xbeed9620	-0.464036
47	0xbe3d6f95	-0.18499596
48	0x3d932606	0.07184987
49	0xbe8c8ba7	-0.27450296
50	0xbe89215c	-0.26783264
51	0xbe8a275b	-0.2698315
52	0xbe48ae13	-0.19597654
53	0xbe25a133	-0.16174774
54	0xbe883666	-0.26604003
55	0xbebb7695	-0.36613908
56	0xbf0df2c9	-0.55448586
57	0x3d81debf	0.063413136
58	0xbd344c8f	-0.044018324
59	0xbe3f194f	-0.18661998
60	0xbee7fa6c	-0.45308244
61	0xbf0ca3b8	-0.54937315
62	0x3e62f44f	0.22163509
63	0xbe8bce3c	-0.27305782
64	0xbef9a868	-0.48761296
65	0xbe96b7c1	-0.29437068
66	0xbdfab4d0	-0.122415185
67	0x3eb5cbce	0.35507053
68	0x3e588eed	0.21148272
69	0xbe30f97e	-0.17282674
70	0x3e294876	0.16531548
71	0xbcef245d	-0.029192144
72	0xbe1441b8	-0.14478195
73	0x3e4052ea	0.18781629
74	0xbeeed5b1	-0.4664741
75	0xbe8f0b20	-0.27938175
76	0xbeb11918	-0.34589458
77	0xbe00bb3f	-0.12571429
78	0xbe580d55	-0.21098836
79	0x3e745c39	0.23863305
80	0xbef1a70d	-0.47197762
81	0xbe89ce73	-0.2691532
82	0x3e6a46ad	0.22878523
83	0xbee66849	-0.45001438
84	0xbecea908	-0.40363336
85	0xbecc265f	-0.39873025
86	0xbeeabace	-0.45845646
87	0xbed08931	-0.4072967
88	0xbee8d23a	-0.4547289
89	0xbee4a89e	-0.44659895
90	0xbf0b6fe0	-0.5446758
91	0xbe911953	-0.28339633
92	0xbed59f3a	-0.41723043
93	0xbf178d8e	-0.5920037
94	0xbf10b433	-0.5652496
95	0xbe3f38bd	-0.18673988
96	0xbec79727	-0.38982508
97	0xbeaed647	-0.34147856
98	0xbedae6e0	-0.4275427
99	0xbeb781eb	-0.35841307
100	0x3b1179b4	0.0022197785
101	0xbeeae1b9	-0.45875338
102	0x3dd3770a	0.10325439
103	0xbecee537	-0.40409252
104	0xbf027c21	-0.50970656
105	0xbed6942c	-0.4190992
106	0xbf077bf0	-0.5292349
107	0xbea88c1b	-0.32919392
108	0xbed77865	-0.4208404
109	0x3b9e2d00	0.0048271418
110	0xbe01284b	-0.12613027
111	0xbf0b0132	-0.542987
112	0xbec3ad00	-0.38217926
113	0xbe3b550b	-0.1829416
114	0xbe95d82f	-0.29266497
115	0xbe837372	-0.25674015
116	0xbee02b9c	-0.4378327
117	0xbe687455	-0.22700627
118	0xbead1cb2	-0.33810955
119	0xbe8f6011	-0.2800298
120	0x3d6f9c0f	0.05849844
121	0xbe966883	-0.2937661
122	0x3f10a5bd	0.56502897
123	0x3e438416	0.19093356
124	0xbeb7ad01	-0.3587418
125	0xbbe608df	-0.0070201005
126	0xbe1587d7	-0.146026
127	0xbec3c273	-0.3823429
128	0xbe29e2c6	-0.16590413
129	0xbeace87d	-0.33771124
130	0xbf125e82	-0.5717546
131	0x3dbcc338	0.092169225
132	0x3ee892c8	0.45424485
133	0xbf0e6fb6	-0.5563921
134	0xbde593ca	-0.11209829
135	0xbe8429ce	-0.25813144
136	0xbed476e4	-0.41496956
137	0x3f31f929	0.69520813
138	0xbefd2602	-0.4944306
139	0xbd361e5b	-0.044462543
140	0xbe622819	-0.22085609
141	0xbd14c42b	-0.036319893
142	0xbf1aafe1	-0.6042462
143	0xbe97e75c	-0.296687
144	0xbddb6d34	-0.10714188
145	0x3dfe5466	0.124184415
146	0xbf1c70fb	-0.61109895
147	0xbe91369c	-0.28361976
148	0x3de38233	0.11108818
149	0xbe9d83d0	-0.30764627
150	0xbeccbc8d	-0.39987603
151	0xbe925242	-0.28578383
152	0x3de70133	0.112795256
153	0xbee5c1d0	-0.4487443
154	0xbf1442b8	-0.57914305
155	0xbef53f6e	-0.47899956
156	0xbeeb5cd2	-0.45969254
157	0x3bb1a8e7	0.005421746
158	0xbe674176	-0.22583565
159	0x3d1fa233	0.038973045
160	0xbeea9ba3	-0.45821866
161	0xbd838c13	-0.064232014
162	0xbeb410c6	-0.35169047
163	0xbee6c941	-0.4507542
164	0xbe613b68	-0.21995318
165	0xbe4f1f82	-0.20226863
166	0xbe6e247b	-0.23256104
167	0xbcf948bc	-0.03043019
168	0xbf1531c8	-0.58279085
169	0xbefa4c86	-0.48886508
170	0xbee3d54a	-0.44498664
171	0xbf0cd15e	-0.5500697
172	0xbe28ccc8	-0.16484368
173	0xbedfb7ec	-0.4369501
174	0xbda2d69f	-0.07951092
175	0xbebe274d	-0.3713936
176	0xbe8fbc61	-0.2807341
177	0x3b0cd7af	0.0021490862
178	0xbeb22197	-0.34791252
179	0x3e374b31	0.17899777
180	0x3ed79de9	0.42112663
181	0xbe1de82c	-0.15420598
182	0xbf1b073c	-0.60557914
183	0xbddef3c6	-0.1088634
184	0xbe7542df	-0.2395129
185	0xbe7502d8	-0.23926866
186	0xbe0bc5e4	-0.13649708
187	0xbe6eab32	-0.23307493
188	0x3e253ef3	0.16137294
189	0xbd8f6f72	-0.070036784
190	0xbe3513e6	-0.17683372
191	0xbea74a60	-0.3267393
192	0xbf1b4ab4	-0.6066086
193	0xbdae21e6	-0.08502559
194	0xbe9a689e	-0.30157942
195	0xbf19728d	-0.59940416
196	0x3dd9fe7b	0.106442414
197	0xbe3a44a7	-0.18190251
198	0xbeced3c4	-0.4039594
199	0xbec49501	-0.3839493
200	0x3ec6f809	0.3886111
201	0xbe087687	-0.13326465
202	0x3e920183	0.28516778
203	0x3ea15165	0.31507412
204	0x3e91969f	0.28435227
205	0x3efb4133	0.4907318
206	0x3dfe0f20	0.124052286
207	0xbe0f39cf	-0.13986896
208	0x3e51c1db	0.20484106
209	0x3e59a755	0.21255238
210	0x3e8bc169	0.27295998
211	0x3e3fc8d5	0.18728955
212	0x3dd7ce25	0.10537366
213	0xbd94672f	-0.07246243
214	0xbf406370	-0.7515173
215	0xbc865049	-0.016395705
216	0xbe9e0a99	-0.3086746
217	0xbd4c1789	-0.049827132
218	0x3ed09805	0.40740982
219	0xbe929927	-0.2863247
220	0xbd8d16b3	-0.06889095
221	0xbd9f5a44	-0.07780889
222	0xbd42b0fb	-0.047532063
223	0x3d5aeca8	0.05344835
224	0xbee72b7e	-0.4515037
225	0xbeaafb48	-0.33394837
226	0x3e4b89ee	0.19876835
227	0x3e76febe	0.24120614
228	0x3df759d1	0.12077678
229	0x3eea05c7	0.45707533
230	0x3e9fcc86	0.31210726
231	0x3e60ba2d	0.2194602
232	0xbe394bd3	-0.18095331
233	0x3d7bf2ed	0.06151097
234	0x3ed1d3cf	0.4098191
235	0x3ec353b2	0.38149792
236	0x3d844ea7	0.06460314
237	0x3e6775ef	0.22603582
238	0x3d73710a	0.059433974
239	0x3e6849d5	0.22684415
240	0x3dec3c7f	0.11534976
241	0x3e811b55	0.25216165
242	0xbed89b33	-0.42305908
243	0x3ec20fd6	0.37902707
244	0xbe58286b	-0.21109168
245	0x3eb247d0	0.34820414
246	0x3e97fc54	0.296847
247	0x3e4343db	0.19068854
248	0xbe99d06d	-0.3004183
249	0x3e06b0e2	0.13153413
250	0x3d899fd7	0.0671994
251	0x3e5d7f70	0.21630645
252	0xbdb13921	-0.086534746
253	0x3e023482	0.12715343
254	0x3e14c32a	0.14527574
255	0x3ea39231	0.31947473

layer2.bias f4 [100]
0	0xbf5e6ba4	-0.86882997
1	0x3f36e735	0.71446544
2	0xbeffb9f5	-0.4994656
3	0x3f6104e6	0.878981
4	0xbee889f9	-0.45417765
5	0x3f639b6b	0.88909024
6	0x3f4bb25d	0.79569036
7	0x3f58360a	0.8445746
8	0x3f36cd92	0.71407425
9	0xbef21a49	-0.4728568
10	0x3f49f399	0.78887326
11	0x3f37faf4	0.718673
12	0xbf10b50a	-0.56526244
13	0x3f34cafa	0.7062222
14	0xbf04c241	-0.5185891
15	0xbee9e377	-0.45681354
16	0x3f701955	0.93788654
17	0xbef122bb	-0.4709681
18	0x3e500357	0.20313774
19	0x3f5cdbf4	0.8627312
20	0x3f6fa4b9	0.9361072
21	0x3ebc99a2	0.36835963
22	0xbeb898d1	-0.3605409
23	0xbf405709	-0.75132805
24	0x3f4d9318	0.8030257
25	0xbf31065c	-0.6915033
26	0xbf3f62fd	-0.7476042
27	0xbf29f4eb	-0.6638934
28	0xbf1c91e6	-0.61160123
29	0xbf0cb471	-0.5496283
30	0xbf273459	-0.6531425
31	0x3ebe501f	0.37170503
32	0x3f42b4d8	0.76057196
33	0x3f582817	0.8443617
34	0x3f612150	0.87941456
35	0xbede2fc2	-0.4339581
36	0x3f400ba0	0.7501774
37	0x3f4d5fd6	0.8022436
38	0x3f62e46b	0.8862979
39	0xbf2810d9	-0.6565071
40	0xbf046cb9	-0.517284
41	0x3f5b0119	0.8554855
42	0x3f51316d	0.8171604
43	0xbedea8d6	-0.43488187
44	0xbf5eda07	-0.87051433
45	0x3f3d7d2e	0.74019134
46	0xbece439a	-0.4028595
47	0x3ea9ab99	0.3313873
48	0xbf26f615	-0.6521924
49	0x3f69fa81	0.91397864
50	0xbee339fc	-0.44380176
51	0xbf0487c4	-0.5176966
52	0x3f60d69b	0.8782746
53	0x3f613050	0.87964344
54	0x3f4b75f4	0.7947686
55	0x3f67330e	0.9031228
56	0x3f46a73a	0.7759892
57	0x3f5b1ab9	0.8558765
58	0xbf0a643e	-0.5405921
59	0xbf3e918f	-0.74440855
60	0xbef3cd0e	-0.47617382
61	0xbee8385f	-0.45355508
62	0xbf207a31	-0.6268645
63	0xbec4ac9a	-0.38412935
64	0xbed18042	-0.40918165
65	0x3f704ff0	0.93871975
66	0x3f51a47b	0.818916
67	0xbf27e619	-0.65585476
68	0xbebf13ff	-0.37319943
69	0x3f4febc2	0.8121911
70	0xbef72d0a	-0.4827655
71	0x3f52e727	0.8238396
72	0xbf1cfe05	-0.61325103
73	0x3e01e5fd	0.1268539
74	0xbf780e92	-0.9689723
75	0xbf1a6b36	-0.6031984
76	0xbf0b349c	-0.5437715
77	0x3f4992ad	0.78739434
78	0xbf1a8955	-0.603658
79	0x3f435369	0.7629915
80	0x3f52e77f	0.82384485
81	0x3f52f08d	0.823983
82	0xbf10e340	-0.56596756
83	0x3f4f337a	0.8093792
84	0xbf35c6e7	-0.71006626
85	0x3f4cacd8	0.7995124
86	0xbeb6f008	-0.35730004
87	0xbf14c71a	-0.58116305
88	0xbf2a06b8	-0.664165
89	0x3f3b9e3c	0.7328832
90	0xbed18d05	-0.40927902
91	0x3ecb60aa	0.39722186
92	0xbf6d6f4b	-0.92747945
93	0xbf2510ab	-0.6447856
94	0xbf2b3c0c	-0.668885
95	0x3f4c04d0	0.79694843
96	0x3f60f21e	0.8786944
97	0x3f4af91a	0.7928635
98	0x3f79448b	0.97370213
99	0x3f5dd2f0	0.8664999

out1.weight f4 [3, 100]
0	0xbf2b8fd1	-0.6701632
1	0x3f032a1e	0.5123614
2	0xbe8b198a	-0.27167922
3	0x3f1afe28	0.6054406
4	0xbf01ee28	-0.5075402
5	0x3f0e6c63	0.55634135
6	0x3f1e4c75	0.61835414
7	0x3f0ff8a2	0.5623876
8	0x3f04d30d	0.5188454
9	0x3e0b5f87	0.1361066
10	0x3f13e7f2	0.57775795
11	0x3f13131c	0.57451034
12	0x3e937f62	0.28808123
13	0x3f10729d	0.56424886
14	0xbebc8844	-0.36822712
15	0xbeb3361a	-0.35002214
16	0x3f280361	0.65630156
17	0xbe654992	-0.22391346
18	0x3dc8e15c	0.09808609
19	0x3f0bc8c0	0.54603195
20	0x3f23a43a	0.63922465
21	0x3e17fa58	0.14841592
22	0xbdd689b8	-0.104754865
23	0xbe157641	-0.14595892
24	0x3f0f7983	0.5604479
25	0x3eb0e5f2	0.34550434
26	0x3f40e7b0	0.7535353
27	0xbe61e53f	-0.22060107
28	0x3ecbc667	0.39799806
29	0xbeaab520	-0.33341312
30	0x3e900441	0.28128245
31	0x3f0f2679	0.5591808
32	0x3f2ce0d8	0.67530584
33	0x3f1d7e91	0.6152125
34	0x3f0d5359	0.55205303
35	0x3f5b688f	0.8570642
36	0x3f0c70d9	0.5485969
37	0x3f2651ce	0.64968574
38	0x3f1ee799	0.6207214
39	0xbe3e0df2	-0.18560007
40	0xbd88b38e	-0.06674872
41	0x3f0bd789	0.54625756
42	0x3f358bb6	0.70916307
43	0xbded7f60	-0.115965605
44	0xbf1bc428	-0.60846186
45	0x3f27a6a4	0.6548865
46	0xbf45e43d	-0.7730139
47	0x3e1315de	0.1436381
48	0x3f0d7dbd	0.55269986
49	0x3f23fd8b	0.6405875
50	0xbe921d95	-0.28538194
51	0xbeb216fa	-0.34783155
52	0x3f066d8d	0.5251091
53	0x3f19a7e2	0.60021794
54	0x3f166e11	0.587617
55	0x3f113ecb	0.5673644
56	0x3f168c36	0.58807695
57	0x3f1592ab	0.5842692
58	0xbd62b1d4	-0.05534537
59	0xbf256dd0	-0.64620686
60	0xbe84ea39	-0.25959948
61	0xbe866169	-0.26246193
62	0xbe788841	-0.24270727
63	0x3f725fed	0.9467762
64	0xbecaddd0	-0.39622355
65	0x3f246231	0.6421233
66	0x3f2a03a0	0.6641178
67	0xbee917c5	-0.45525947
68	0xbe862708	-0.26201653
69	0x3f1a16b6	0.60190904
70	0xbd87548c	-0.06607923
71	0x3f08d87b	0.53455323
72	0xbd9dfd00	-0.077142715
73	0x3ee87b37	0.45406505
74	0xbf2c0184	-0.6718981
75	0x3e992981	0.29914477
76	0x3f493baf	0.78606695
77	0x3f098c55	0.53729755
78	0x3cbcda42	0.023053292
79	0x3f302c0a	0.688172
80	0x3f32a62d	0.69784814
81	0x3f31cef3	0.69456404
82	0xbe104539	-0.14088906
83	0x3f195d9b	0.59908456
84	0x3f0deaa8	0.5543618
85	0x3f0095de	0.5022868
86	0xbf19f19a	-0.6013428
87	0xbe8fec47	-0.28109953
88	0x3f5da257	0.86575836
89	0x3f0dad12	0.5534221
90	0xbf0c6beb	-0.5485217
91	0x3ed9e025	0.4255382
92	0xbf256ed6	-0.6462225
93	0x3e37ce89	0.1794988
94	0x3e8d70ae	0.2762503
95	0x3f336eb0	0.7009077
96	0x3f17e510	0.59333897
97	0x3f1316b3	0.5745651
98	0x3f3c9718	0.7366805
99	0x3f1282b1	0.5723067
100	0xbebd9b71	-0.37032655
101	0x3ec5c029	0.3862317
102	0x3ca952b1	0.020669313
103	0x3eb44355	0.3520762
104	0xbe138634	-0.14406663
105	0x3e941689	0.28923443
106	0x3e88ea77	0.26741382
107	0x3e8a3e7b	0.27000794
108	0x3e2aa501	0.16664506
109	0x3da73f36	0.081663534
110	0x3ea347cf	0.31890723
111	0x3ec0ec0e	0.37680095
112	0x3e199625	0.14998682
113	0x3eb7219f	0.35767838
114	0xbe03ffef	-0.128906
115	0xbe3a26f8	-0.18178928
116	0x3ee0b53d	0.43888274
117	0xbe95da9d	-0.2926835
118	0xbcfbdca0	-0.03074485
119	0x3ec595d0	0.3859086
120	0x3eca900c	0.39563024
121	0x3e063874	0.13107473
122	0xbd98e8fd	-0.07466314
123	0xbd747486	-0.059681438
124	0x3ecee60c	0.40409887
125	0x3e963025	0.29333606
126	0x3ef0e8dd	0.4705266
127	0xbd365f7f	-0.044524666
128	0x3e9e10b8	0.3087213
129	0xbe8e0f48	-0.27746034
130	0x3ebfe44e	0.3747887
131	0x3e858138	0.2607515
132	0x3eca9a24	0.39570725
133	0x3ea835a2	0.3285342
134	0x3ed3e1cf	0.41383216
135	0x3ec15a63	0.37764272
136	0x3e8ebc21	0.27877906
137	0x3edde215	0.4333655
138	0x3ec4432d	0.383325
139	0x3daa7c9b	0.08324548
140	0x3d82913e	0.06375359
141	0x3ebbc59c	0.366742
142	0x3eb5442f	0.35403582
143	0x3d462ab3	0.048380565
144	0xbec98d69	-0.393657
145	0x3ecfdffa	0.40600568
146	0xbe15929a	-0.14606705
147	0x3e3d5a70	0.1849153
148	0x3eb40a82	0.35164267
149	0x3ed78108	0.4209063
150	0xbdd775fa	-0.10520549
151	0xbe30e98e	-0.17276594
152	0x3ebb08f6	0.36530274
153	0x3e81b438	0.25332808
154	0x3e81870e	0.2529835
155	0x3eb6ed29	0.35727814
156	0x3ec12584	0.37723935
157	0x3ee731cd	0.45155182
158	0x3e447113	0.1918376
159	0xbe99a080	-0.30005264
160	0xbef460da	-0.47730142
161	0x3eb52e81	0.35387042
162	0xbda75cc6	-0.08171992
163	0x3df77c91	0.12084306
164	0xbdb1d44d	-0.08683071
165	0x3e9819ea	0.2970727
166	0x3eb74203	0.3579255
167	0xbede0f07	-0.4337084
168	0xbebbef14	-0.3670584
169	0x3e8965e7	0.26835558
170	0x3d985115	0.0743734
171	0x3ebacb1b	0.36483082
172	0xbc73dd05	-0.014884238
173	0x3d848c02	0.06472017
174	0xbee77bcd	-0.4521164
175	0xbec15857	-0.3776271
176	0x3ebffd25	0.3749782
177	0x3e8e18da	0.27753335
178	0x3ec2ff97	0.38085625
179	0x3ec2c0d8	0.38037753
180	0x3e88b910	0.2670369
181	0x3ec529bf	0.38508412
182	0xbd51bc5b	-0.05120502
183	0x3ec1083e	0.377016
184	0x3e9d5a03	0.30732736
185	0x3e9dd5ce	0.30827183
186	0xbf0a10b2	-0.53931725
187	0xbd783d23	-0.06060518
188	0x3e96320c	0.29335058
189	0x3ed76cad	0.420751
190	0x3b4ced01	0.0031269195
191	0x3d1d6787	0.03842881
192	0xbead8b89	-0.3389552
193	0x3eaba0f3	0.33521232
194	0x3ed1dfa9	0.40990952
195	0x3e91f80f	0.28509566
196	0x3edbb4bd	0.4291133
197	0x3eaba453	0.33523807
198	0x3eda8d3f	0.42685887
199	0x3eb824a6	0.3596546
200	0xbe8d5e56	-0.27611035
201	0x3e560a11	0.20902278
202	0x3e0466dc	0.12929863
203	0x3e5b7f7e	0.21435353
204	0xbd352ea0	-0.04423392
205	0x3e427ddd	0.18993326
206	0x3de69f37	0.112608366
207	0x3e5132c7	0.20429526
208	0xbd249069	-0.040176783
209	0x3e9b38ae	0.3031668
210	0xbbde6906	-0.006787422
211	0x3e2120e6	0.15735206
212	0x3e555102	0.20831683
213	0x3e854566	0.2602951
214	0x3dde6dfa	0.1086082
215	0x3e34640f	0.17616294
216	0x3e7654fd	0.24055858
217	0xbeda0270	-0.42579985
218	0xbe870dc9	-0.26377705
219	0x3dd58305	0.104253806
220	0x3e083da8	0.1330477
221	0x3b9ef85a	0.004851383
222	0x3e131946	0.1436511
223	0x3ca2d5f2	0.019877408
224	0x3e481b00	0.1954155
225	0x3e508c79	0.20366086
226	0x3e802d1f	0.25034425
227	0x3e0b147f	0.13582037
228	0x3e492fcc	0.1964714
229	0xbeddae3a	-0.43296987
230	0x3eb7046e	0.35745567
231	0xbdce681b	-0.1007845
232	0x3dffe592	0.12494959
233	0x3e745302	0.2385979
234	0x3e69b3e6	0.22822532
235	0xbf0e49d0	-0.5558138
236	0x3e5622dc	0.20911735
237	0x3e633b39	0.2219056
238	0x3e07ec75	0.13273795
239	0x3e981a0e	0.29707378
240	0x3e874a26	0.26423758
241	0x3e848d87	0.25889227
242	0x3dc4288c	0.09578046
243	0x3e40d0cd	0.18829651
244	0xbe33391b	-0.17502253
245	0x3e14e3f1	0.14540078
246	0x3e9d9469	0.3077729
247	0xbd5b70fd	-0.05357455
248	0x3eeb4b9b	0.4595612
249	0x3dfe2bbb	0.12410685
250	0x3e25531a	0.16144982
251	0xbd8c1a11	-0.06840909
252	0x3e8dbc39	0.27682665
253	0x3e659047	0.22418319
254	0x3da852f7	0.08218949
255	0x3e93db3e	0.28878206

out1.bias f4 [3]
0	0x3f90d1f3	1.1314071
1	0x3f9ed939	1.2410041
2	0x3f994cce	1.1976564

out2.weight f4 [3, 100]
0	0xbecc0c8f	-0.3985333
1	0x3edb918b	0.42884478
2	0xbe15ae0a	-0.14617172
3	0x3ef3b702	0.4760056
4	0xbe8fc9ba	-0.28083593
5	0x3ee60a15	0.44929567
6	0x3ec5ace8	0.3860848
7	0x3ef4d133	0.47815856
8	0x3ea60890	0.32428408
9	0x3e049580	0.12947655
10	0x3e9403e0	0.28909206
11	0x3e845491	0.2584577
12	0x3e159619	0.14608039
13	0x3e5e7018	0.21722448
14	0xbe846053	-0.2585474
15	0xbe94beb8	-0.29051757
16	0x3eee47c3	0.46539125
17	0xbee88c43	-0.4541951
18	0x3dcc320b	0.099704824
19	0x3ec4e3b2	0.38454968
20	0x3ef4be17	0.47801277
21	0x3e0f4f37	0.13995062
22	0xbe25c2f1	-0.16187645
23	0xbd5b9c8c	-0.05361609
24	0x3ef51811	0.47869924
25	0x3eb55e22	0.3542338
26	0x3ec44eb4	0.38341296
27	0x3d9807e8	0.07423383
28	0x3ebe7734	0.3720032
29	0xbe901538	-0.2814119
30	0x3e9d4204	0.30714428
31	0x3e1fc1ac	0.15601224
32	0x3eddf6a0	0.43352222
33	0x3eb6770c	0.356377
34	0x3eb5d9d9	0.35517767
35	0x3d38cdd8	0.045118183
36	0x3ea403d1	0.32034162
37	0x3ebb48af	0.3657889
38	0x3ede33a7	0.43398783
39	0x3d84b644	0.06480077
40	0x3d720f1f	0.05909645
41	0x3ee2369a	0.44182283
42	0x3e7909d7	0.2432016
43	0xbddbba31	-0.107288726
44	0xbe8d65d3	-0.27616748
45	0x3ea22940	0.31672096
46	0xbeb92106	-0.36158007
47	0x3e32de00	0.17467499
48	0x3f0a3f22	0.54002583
49	0x3ee78661	0.4521971
50	0xbe13be54	-0.14428073
51	0xbe0d070e	-0.13772222
52	0x3eba796e	0.36420768
53	0x3ea99a74	0.3312565
54	0x3e9bef64	0.30456078
55	0x3edd2f0b	0.43199953
56	0x3ef06119	0.4694908
57	0x3ee50de6	0.44737166
58	0xbd178870	-0.03699535
59	0xbe89cf3f	-0.2691593
60	0xbec200d3	-0.37891254
61	0xbb8c7891	-0.0042868336
62	0xbecff444	-0.40616047
63	0x3d972348	0.07379776
64	0xbe4f2696	-0.20229563
65	0x3ef2c384	0.47414792
66	0x3e8fe5e5	0.28105083
67	0xbeca0dc4	-0.39463627
68	0xbe4d1a88	-0.20029652
69	0x3eeef400	0.46670532
70	0xbcb0f4ec	-0.021601163
71	0x3eefbd77	0.46824238
72	0xbdafc63b	-0.08582731
73	0xbbd8e3c5	-0.006618949
74	0xbef7994a	-0.48359138
75	0x3e71393a	0.23556986
76	0x3e9b506f	0.30334803
77	0x3ea298c8	0.31757188
78	0x3e12e070	0.14343429
79	0x3e96d4bd	0.2945918
80	0x3e994770	0.29937315
81	0x3eb4baca	0.3529876
82	0xbbb0d49a	-0.005396438
83	0x3edb67c1	0.42852595
84	0x3ed28ae3	0.41121587
85	0x3ed4dcff	0.41574857
86	0xbee286b6	-0.442434
87	0xbe340a75	-0.17582114
88	0x3ed0def5	0.40795103
89	0x3ec9e73e	0.39434236
90	0xbec03126	-0.37537497
91	0x3db22855	0.08699099
92	0xbed07013	-0.40710506
93	0x3e01a7e5	0.12661703
94	0x3e79006c	0.24316567
95	0x3ef42806	0.47686785
96	0x3ef1a803	0.47198495
97	0x3ecd3c3a	0.40085012
98	0x3ef6eb94	0.48226607
99	0x3eb0928d	0.3448681
100	0xbeaf13ea	-0.3419488
101	0xbc0e135d	-0.008671609
102	0xbe4c4330	-0.19947505
103	0x3ebfdb0c	0.37471807
104	0xbe4aee7a	-0.19817534
105	0x3ec03e82	0.3754769
106	0x3eb4d7d3	0.3532091
107	0x3e9f9555	0.3116862
108	0x3e2519be	0.16123101
109	0x3e9af295	0.302632
110	0x3e549339	0.20759286
111	0x3e79fb58	0.24412286
112	0x3e72a51b	0.23695795
113	0x3dd8787d	0.10569856
114	0x3bfd5f28	0.007732291
115	0xbe0fd3ec	-0.14045686
116	0x3ec1e29e	0.37868208
117	0xbf002502	-0.5005647
118	0xbe0640c7	-0.13110648
119	0x3eb39397	0.3507354
120	0x3ebebb22	0.37252146
121	0x3d666474	0.056248143
122	0xbdc705f5	-0.09717933
123	0xbd373e0d	-0.04473691
124	0x3e92699c	0.285962
125	0x3eadbd22	0.3393336
126	0x3e95948d	0.29214898
127	0xbdc604b8	-0.09668869
128	0x3e9f9064	0.3116485
129	0xbeeceaad	-0.46272793
130	0x3e8472b2	0.25868756
131	0xbda514f1	-0.08060635
132	0x3e9919d4	0.29902518
133	0x3e7c0e0f	0.24614738
134	0x3e9b28d7	0.30304596
135	0xbd3edd80	-0.046597958
136	0x3e47ad82	0.19499782
137	0x3e594d60	0.21220922
138	0x3e6c81b0	0.23096347
139	0x3e119e46	0.14220533
140	0x3e0147fb	0.12625115
141	0x3e80dda1	0.2516909
142	0x3e69971a	0.22811547
143	0x3d5094a4	0.050923005
144	0xbe9a0a88	-0.3008616
145	0x3ea5f8fb	0.3241652
146	0x3df059cd	0.11735878
147	0xbcd179ff	-0.025570868
148	0x3ee0a44b	0.43875346
149	0x3ebd222b	0.3694013
150	0x3de571fd	0.11203382
151	0xbdf05673	-0.11735239
152	0x3eb6ff59	0.3574169
153	0x3eae9684	0.3409921
154	0x3e69faac	0.2284953
155	0x3e67442c	0.225846
156	0x3e9ef791	0.31048253
157	0x3e9c39e3	0.30512914
158	0x3dee1514	0.11625114
159	0xbe7809dd	-0.24222513
160	0xbeea01f3	-0.45704612
161	0x3ccad6fd	0.024760718
162	0xbc9c70ee	-0.019096818
163	0xbe4c39fb	-0.19943993
164	0xbd5cefa2	-0.05393947
165	0x3ec39059	0.38196066
166	0x3e972262	0.2951842
167	0xbf150825	-0.5821555
168	0xbf098667	-0.53720707
169	0x3eb7306e	0.35779136
170	0xbd9b348c	-0.07578382
171	0x3ebbf384	0.36709225
172	0xbd0322cc	-0.032015607
173	0xbd3f6ce6	-0.046734713
174	0xbeb30113	-0.34961757
175	0x3c818a6d	0.015813077
176	0x3e8056c4	0.25066197
177	0x3ea5381f	0.3226938
178	0xbca92ac4	-0.020650275
179	0x3e8c28a1	0.27374747
180	0x3ea16a29	0.31526306
181	0x3e4099cf	0.18808673
182	0x3bce9dc1	0.006305427
183	0x3e5b359d	0.2140717
184	0x3e9178d2	0.2841249
185	0x3e67612e	0.22595665
186	0xbd64ad9e	-0.055829637
187	0xbd99181b	-0.07475301
188	0x3e576d27	0.21037732
189	0x3d599cd0	0.053128064
190	0x3e582b44	0.21110255
191	0x3d460d0d	0.04835229
192	0xbea29d9c	-0.3176087
193	0x3e0fa86c	0.14029092
194	0x3e6493f1	0.2232206
195	0x3e7e6fe0	0.24847364
196	0x3ea455af	0.3209662
197	0x3eba7594	0.3641783
198	0x3eca0364	0.39455712
199	0x3eaa1494	0.33218825
200	0xbe84a685	-0.25908294
201	0x3df3e230	0.11908376
202	0x3dafa1c7	0.085757785
203	0x3e8afacb	0.27144465
204	0x3d6481d5	0.05578788
205	0x3e0e0626	0.13869533
206	0x3e3267dd	0.17422433
207	0x3e60fbd6	0.21971068
208	0x3db15b3a	0.08659978
209	0x3e85dad7	0.26143524
210	0xbdc505a4	-0.096202165
211	0x3df020d7	0.11725014
212	0x3ea4a770	0.32158995
213	0x3e86c889	0.2632487
214	0x3d8edccd	0.06975708
215	0x3c4d0f6d	0.012515885
216	0x3e50da97	0.20395885
217	0xbef0168f	-0.4689221
218	0xbe8d0e76	-0.27550095
219	0x3e89e2fb	0.26930985
220	0x3e85e3ea	0.26150447
221	0xbcbe1f1b	-0.023208192
222	0x3e5c649f	0.21522759
223	0x3e21dd65	0.15807112
224	0x3e643881	0.2228718
225	0x3e670f00	0.22564316
226	0x3eacd904	0.3375932
227	0x3d893865	0.067002095
228	0x3ebf89a9	0.37409714
229	0xbeff2a54	-0.4983698
230	0x3eca226e	0.39479393
231	0x3c43635e	0.011925546
232	0x3e2512a4	0.16120392
233	0x3e11d843	0.14242654
234	0x3e7b340e	0.24531576
235	0xbf1fe1fb	-0.62454194
236	0x3e518456	0.20460638
237	0x3e6a8a69	0.22904362
238	0x3e83c530	0.2573638
239	0x3e80215a	0.25025445
240	0x3e13e43e	0.14442536
241	0x3e54f3fa	0.20796195
242	0x3e3000a6	0.17187747
243	0x3e20c89c	0.15701526
244	0xbe0789eb	-0.13236205
245	0x3daf23d4	0.085517555
246	0x3ec60be5	0.3868095
247	0x3d0c6db4	0.03428431
248	0x3ed46ce4	0.41489327
249	0x3e78704c	0.24261588
250	0x3df392d2	0.11893238
251	0xbd417ce4	-0.047238246
252	0x3e847d37	0.2587678
253	0x3e7c11e7	0.24616204
254	0xbc58a348	-0.013222523
255	0x3e6db042	0.23211768

out2.bias f4 [3]
0	0x3f9fa1b1	1.2471219
1	0x3f90c9ab	1.1311544
2	0x3fa4a688	1.2863321
