Fibrosis_EDA_model3.bin (torch, 93381 bytes, 8 tensors)

layer1.weight f4 [200, 9]
00000000: d7de 77be 2362 ac3d baae c0be fe4e 55bf
00000010: 5a85 093e c617 333f ba39 723f a124 343f
00000020: 68ea 213f 2ef1 273f a13e ffbc d42f 33bd
00000030: 8d9e 3cbf c550 2d3e fc78 733e 49df 423f
00000040: 8102 51bc acf5 833b c15a b33d 98bc 0d3f
00000050: 1b5f 043f f996 923d 63b5 893d 6fc3 ab3d
00000060: d580 bb3e 0865 f53e eb07 c53e 6aea 703e
00000070: bc88 163f 0971 d13e 369b 62be b55b 4abe
00000080: 0f67 9e3e c886 d33e 6f92 3d3f 2c0f ec3c
00000090: cfeb 9d3e 6cb7 10bc 3b06 3dbe 5189 28be
000000a0: f1d8 3fbf 1b5d fdbe 3bd5 f1be 6ef4 02bf
000000b0: 7c5c 3dbf 912e 20be 8538 793d 317e 06be
000000c0: 9b8a 43bf 020e 6ebd dcc0 133f 31b2 fb3e
000000d0: 90b9 1a3f 242b 893e 76c1 2fbd 2a9e 413e
000000e0: 9995 203e 5f18 b0be f258 27bf de7a 1fbf
000000f0: b77f 88be 4b51 f4be 5f44 64bf 7087 1e3f
00000100: 3487 b5bd 1d1d 9abd 7bfa 213f c587 2f3f
00000110: e406 063f 256f ee3d 38ba 253e 331e 403f
00000120: 4520 643f 0c42 193f 289c b93d e014 8a3d
00000130: 9c15 39bd 92ab 173d a167 033f 9e02 c03d
00000140: 5f40 4f3e 4f71 04bf 2aa2 373e d9aa 55be
00000150: 55db 12bf 95ee 1c3c 4a6b f73e f77b 143f
00000160: c689 0b3e bfea 163f eb95 1b3e a395 d7bc
00000170: eca3 c33c d95e a5be bf15 303f dbdf e53e
00000180: fc08 95bb 3069 d03e 37cb 1b3f 9b90 073f
00000190: 3812 a73e 0384 0a3f 90e4 31be a875 21bf
000001a0: 9a07 ca3d 7661 943c 383c d6be 0736 a93d
000001b0: 64ae 0abf bfc6 b9bd 07e7 4dbe ac59 bcbe
000001c0: a8c5 9bbe 79b1 e53d 518b fb3e 3d6b 663e
000001d0: e639 983e 7e91 51be f11f b9bb 3585 303f
000001e0: 0bb9 3c3e 0fb9 80be d7a2 25bf 8e01 033f
000001f0: 484e 23bf e41b 5ebd fb63 113f dc3e 1c3f
00000200: b65d d53e ae1d bebe 8218 343f f8a1 293f
00000210: 3bd1 1e3f 241d 343f 52d4 9f3e 01a8 babe
00000220: 2067 563c 5224 a83d 343b 28bf 745f 10be
00000230: 9edf 6a3e fc90 a43e 66f0 12be 7672 993e
00000240: 32d0 febe bb06 d6bd c87d 8aba 1e6b 0bbf
00000250: c128 e5be 9cdc 4f3d 258a 4d3f 14da f4bc
00000260: 2a53 18be deea 78be 930c 81be 5e02 5cbe
00000270: be7d 28bf 6e15 bc3d 2db4 423f 7783 333f
00000280: 6a77 2d3f b67c 223f 9754 b5bd 7ba5 113f
00000290: 0ad5 903e f483 a2be 8a17 80be 13e0 d3be
000002a0: 2c2a d5be af8b b13b 170d 22bf 9d62 cc3b
000002b0: f794 f3be a279 3b3e 18dc 033f e042 773e
000002c0: fc9c 503d 94b9 683e 9be6 0e3f 8f25 0f3f
000002d0: 98af 0e3f 36fb 203e 8209 133f 7e9e 4fbe
000002e0: ab24 ea3e cdff 213f 17a5 da3e 8601 063f
000002f0: ff88 ba3e dcd3 8d3f 1b32 2ebe 34d0 3e3e
00000300: 851c 5b3e 5e13 4cbe 3ebd 0e3d 7ca2 e23e
00000310: ff52 013f 50fe bbbc c518 dabe 77c0 8a3e
00000320: 8c5e 8cbe ad0f d73e 6eba b83c 67f4 c93d
00000330: deab f93e d18d 1cbe de15 77be 68a6 98be
00000340: 8c8e 003f 70d2 023f ee3b 26bd 50de 0e3e
00000350: 2355 58bd 603a d13e c1fa 003f c5cd e83d
00000360: 32b0 813c 8002 13bd 9a00 9cbd 8626 01bf
00000370: 56ff a8be 2ae0 ff3e 99df 3d3f 4f73 3a3e
00000380: 806d 21bb b06d 313f 5922 80be 3b83 2bbc
00000390: faf0 2c3f 5cf0 533e cf51 d03e ec0e 363f
000003a0: c161 233f f0d2 213f 9876 c8bc a1b3 ef3e
000003b0: da64 5e3e 1dc4 40bf 3707 fcbe 4ba2 18be
000003c0: f51d 42bf eaa7 603d 6153 94be e88d 14bf
000003d0: a3d9 123e 1880 95be f07e adbe 0f78 0a3f
000003e0: f1ae 173f ebcc d43d a5dd 0abd f0a1 0f3e
000003f0: 8aca 813f 95b4 ce3e a89b 61bf bbc4 a93c
-0.242061 0.084171556 -0.37633306 -0.8332366 0.13429776 0.6995815 0.94619334 0.7036839
0.632483 0.65602386 -0.031157793 -0.043746784 -0.7367943 0.16925342 0.2377662 0.76121956
-0.012756945 0.004027089 0.08757544 0.55365896 0.5170762 0.07157702 0.0672405 0.083868854
0.3662173 0.47928643 0.38482603 0.23526922 0.5880239 0.4090655 -0.22129521 -0.19761546
0.30938002 0.41313767 0.74051565 0.028815828 0.3084397 -0.008832794 -0.18459408 -0.16458632
-0.749404 -0.49485096 -0.47232994 -0.5115422 -0.73969245 -0.15642764 0.060844917 -0.13134076
-0.7638337 -0.058118828 0.57716155 0.49159387 0.60439396 0.26790726 -0.042909108 0.18907991
0.15682067 -0.34393594 -0.65370095 -0.62296855 -0.2665994 -0.47718272 -0.89166826 0.6192541
-0.088636786 -0.07525084 0.6327283 0.6856654 0.52354264 0.11642293 0.16184318 0.7504608
0.8911174 0.59866405 0.090629876 0.06742263 -0.045186624 0.037028857 0.5133 0.09375499
0.202394 -0.51735395 0.17932954 -0.20865954 -0.57365924 0.009578367 0.48324043 0.58001655
0.13626775 0.58951944 0.15193908 -0.02631647 0.023881875 -0.32298926 0.6878318 0.4489735
-0.00454819 0.40705252 0.60856956 0.52955025 0.32631087 0.54107684 -0.17372346 -0.63070154
0.09864731 0.01811288 -0.41842818 0.08262258 -0.5417235 -0.09071111 -0.20107661 -0.36787164
-0.30424237 0.11215491 0.49129727 0.22501846 0.29731673 -0.20465657 -0.0056495597 0.6895326
0.18429963 -0.25141189 -0.647016 0.5117425 -0.6379132 -0.054225817 0.56793183 0.61033416
0.41673058 -0.3713202 0.70349896 0.6626277 0.6203801 0.70356965 0.31216675 -0.36456302
0.01308611 0.082100525 -0.65715337 -0.14098912 0.22936866 0.32141864 -0.14349517 0.2997014
-0.49768215 -0.104505025 -0.001056605 -0.5446032 -0.44757655 0.0507475 0.80288917 -0.029889144
-0.14875475 -0.24308345 -0.25204906 -0.21485278 -0.6581687 0.09183775 0.76056176 0.70122474
0.67760336 0.63471544 -0.08854025 0.5689313 0.28287536 -0.31741297 -0.2501796 -0.41381893
-0.41633737 0.005418263 -0.63301224 0.0062373416 -0.4757459 0.18308118 0.5150771 0.24146605
0.050930962 0.22727042 0.55820626 0.55916685 0.55736685 0.1572083 0.5743638 -0.20275304
0.457311 0.63280946 0.4270408 0.52346075 0.36432645 1.1080279 -0.17011301 0.1863411
0.21397598 -0.19929263 0.034848444 0.4426459 0.50517267 -0.022948414 -0.42597023 0.27099964
-0.27415884 0.42004147 0.022549834 0.09861069 0.48763937 -0.15288474 -0.24129435 -0.29814458
0.5021751 0.5110235 -0.040584497 0.13951993 -0.052815568 0.4086485 0.5038262 0.113673724
0.015831087 -0.035891056 -0.07617302 -0.5044941 -0.33007306 0.4997571 0.7416931 0.18208049
-0.0024631917 0.69307995 -0.25026205 -0.0104682995 0.675552 0.20697159 0.40687415 0.7111652
0.63821036 0.6321249 -0.024470612 0.46816733 0.2171816 -0.75299245 -0.49224254 -0.1490566
-0.7582696 0.054847635 -0.28969863 -0.5802903 0.14340834 -0.2919929 -0.33885908 0.54089445
0.59251314 0.103906475 -0.033902783 0.14026618 1.0139935 0.40372148 -0.8812814 0.020723691

layer1.bias f4 [200]
00000000: 10f1 373f c3fa 78bd ff66 da3e 482e de3e
00000010: 3faa c1be 9c45 d83e 5820 5dbf 7351 413f
00000020: e371 e33e 3d9c 8d3e 4503 413f 1174 8a3e
00000030: dd14 cc3e 77cb a9bd f57d cc3e 32ba 8c3d
00000040: e6e8 8dbe 999b 133f a31d 24bf c941 243f
00000050: 0e82 543e 2eb3 1c3e 217d 88bd 9556 c43e
00000060: 5b44 6d3e 5f9a 533e 0d7b 73be a7a5 a63e
00000070: e2a6 7ebe f1c6 c23d fc34 52bf b98c c43e
00000080: b72c a13e 8524 163f 10c5 3dbf 80fd fd3d
00000090: f44f 4e3e 9f2a 1ebf d2c4 d63e 818e be3e
000000a0: 0711 52bf 4275 76bf 72cd 86be 1e0b 4dbf
000000b0: 3f72 a73c ca98 8a3e 541e 253f 7a14 38be
000000c0: 4bc2 813e f582 0a3e 5b92 043f bf14 62bf
000000d0: 9c8d 38bd 21f3 2c3f ea56 cdbd 2fad b43e
000000e0: 0fd9 f2bb 33c9 f73d 93f1 c53e 5741 3d3f
000000f0: 2b59 943e 46ba 043f 0c54 f13d fdaa 4c3e
00000100: ed68 18be 5f9d b83e 1835 c63e 7e1d ed3d
00000110: 2064 c03e 19ae 8cbe 5bcf c7be dafb 26be
00000120: c6d4 38be 5333 2a3f 98fe 933e 7d58 1fbe
00000130: 36d3 3d3f a454 25bf 06ac d83d 1a20 1c3e
00000140: 08ce 25bf faaa d63e 4f9d 393f 0b66 4dbf
00000150: 0cec a2bd 0b2f 833e 992a 2a3f 0cdf 57be
00000160: 4d2e 383f 524d d23e f84d 383f b64e 0ebf
00000170: 57d1 063e 7baa 2a3f 0e85 99be dc6f b93e
00000180: 03d7 ef3e 1034 2b3e 9046 353f b723 b13d
00000190: de19 aa3e 2d52 61be 4657 853e 679d 7e3c
000001a0: 341b aa3e a8a6 353f d249 fd3d e43c 5d3e
000001b0: 9388 833d eb0f b83e addd 4d3f 0fe5 c0bd
000001c0: 1f2b c4be 2f99 4fbd 94cb e8bd 5de0 273f
000001d0: b719 293f 178f 0ebf 14b3 74be 8f13 453f
000001e0: cafd 4c3f fbab 62be df33 45be 2a25 1c3e
000001f0: 7e1f a83e c6fa 0b3f 70d5 013f aaed 0b3f
00000200: 23c6 4e3f 36d2 cb3c 1da1 8d3e 8210 50be
00000210: e99f 1cbf fd18 c2be 5845 073f de38 65be
00000220: 03f8 4b3f ed8e c53e 0d96 373f e108 2cbf
00000230: 821a 75be b4e6 c7be 547c c23e d331 cd3e
00000240: 1c7c cc3e 8fd0 b7be 3388 123f fbcb d33d
00000250: a9b1 c2be b147 2a3f 602f 523d 90fc a43e
00000260: 2bc4 f7be d580 053f 72c9 b53e 97f7 083d
00000270: 9c0a ab3e f60c 1d3e 3b2f 01bf bba3 233f
00000280: eb3d 0ebf 8bc2 093f 0340 d0bd 6725 3e3e
00000290: 0875 383f 3ef3 0e3f 05be 583d 4470 313f
000002a0: c1ba de3e 8d22 9b3e 170f 153f e116 de3e
000002b0: d84f ff3e b9dc 023f 2c60 b33c aeb3 34bf
000002c0: 2d63 c23b fa14 1b3f 2aec a33e b817 16be
000002d0: 7f83 3a3f 9aba 3bbf 0e72 453e 198a 4b3f
000002e0: 2d74 8b3e b74b 373f 8e55 1b3f 3d78 ff3e
000002f0: 738d ac3e 980f 953e 52c6 35bf baf0 913e
00000300: 404a c0be a865 8dbe 8c0c 0dbf 5c58 febe
00000310: 7463 973e d8d5 9cbd 1969 b13e d072 55bf
0.7185221 -0.06078602 0.42656705 0.43394685 -0.378252 0.42240608 -0.8637748 0.75514907
0.44422826 0.27658263 0.75395614 0.27041677 0.39859667 -0.08290761 0.39939848 0.068714514
-0.2771675 0.576593 -0.6410772 0.6416288 0.20752737 0.15302727 -0.066644914 0.38347307
0.23170607 0.20664357 -0.23777409 0.32548258 -0.24868348 0.09510601 -0.821121 0.38388613
0.31479427 0.58649474 -0.7412882 0.12401867 0.20147687 -0.61783785 0.41947037 0.37218097
-0.8205723 -0.9627267 -0.26328617 -0.8009509 0.020440219 0.27069694 0.644994 -0.17976561
0.25343546 0.13526519 0.5178582 -0.88312906 -0.045056924 0.67558485 -0.10026343 0.3528838
-0.0074111293 0.120989226 0.3866087 0.73927826 0.2897428 0.5184673 0.11783609 0.19987102
-0.14883776 0.36057565 0.38712382 0.11577891 0.3757639 -0.27476576 -0.39025387 -0.16307011
-0.18049917 0.66484565 0.28905177 -0.155611 0.7415041 -0.64582276 0.10579686 0.15246621
-0.64767504 0.4192732 0.7250566 -0.8023383 -0.079551786 0.25621828 0.6647125 -0.2108118
0.7194565 0.41074616 0.7199397 -0.55588853 0.13165794 0.6666638 -0.29984325 0.36218154
0.46843728 0.16719079 0.70810795 0.0864939 0.3322286 -0.22004004 0.26043147 0.015540457
0.3322388 0.7095742 0.12367596 0.21605259 0.06422534 0.35949644 0.80416375 -0.094186895
-0.3831415 -0.050683197 -0.113669544 0.65576726 0.6605486 -0.5568709 -0.23896438 0.7698297
0.8007475 -0.22135918 -0.19258069 0.15248552 0.32836527 0.54679525 0.50716305 0.5465952
0.8077108 0.02488051 0.27661982 -0.20318797 -0.61181504 -0.3790969 0.52840185 -0.22384974
0.7967531 0.38585606 0.71713334 -0.6720105 -0.23935893 -0.390432 0.3798548 0.40077075
0.39938438 -0.35901305 0.57239074 0.103416406 -0.3802617 0.6651564 0.05131471 0.3222394
-0.48391852 0.5214971 0.35505253 0.033439245 0.33406532 0.15336975 -0.5046269 0.6392171
-0.5556323 0.53812474 -0.10168459 0.18568955 0.72053576 0.5583991 0.05291559 0.6931193
0.43501857 0.30299798 0.5822615 0.4337683 0.49865603 0.51118046 0.021896444 -0.7058667
0.005932233 0.6057888 0.32016116 -0.14657485 0.728569 -0.73331606 0.1928179 0.79507595
0.27237073 0.71599907 0.6067742 0.49896422 0.33701667 0.2911346 -0.7100574 0.28503972
-0.37556648 -0.2761662 -0.5509727 -0.49676788 0.29568064 -0.07657975 0.34650496 -0.83378315

layer2.weight f4 [100, 200]
00000000: 0d67 08bf cb40 54be 9367 1ebe 98f9 9ebe
00000010: eccc 80be 272f cbbe 63b6 2bbf abfb a8be
00000020: 755f 1fbf 267e b7bd 95ce bfbe 5603 cbbe
00000030: f71a 58be ee7e b2bd 01e5 b3be 7027 173e
00000040: 3133 ebbe bb31 0fbf a75d 95bd 1f92 7fbe
00000050: 4bea cebe 6fab 543e 298b b7be 6d27 ffbd
00000060: dc90 29bf edc7 b0be 8b34 27be 6da3 1cbe
00000070: 5838 01bf de51 07bf c3d2 cfbd 2d62 9fbe
00000080: c5f0 6bbe 6fda c1be 14c0 e53e 6e78 353f
00000090: 2b7d 043f ebb5 df3e c850 003d fdae 9ebe
000000a0: bb22 183f d4af c5bd cce4 383e 64a2 9c3f
000000b0: 730e af3d 8bb2 983e ad69 eebe 6ebd 0abf
000000c0: 7b1d 17bf 85e7 96bd e378 08bf cb61 0dbe
000000d0: 9e42 693e 5e56 c6be 928a 143f 372e 10be
000000e0: f8ba 9dbe fc15 28bd d0ef c93e 5e2c f3be
000000f0: 3459 053f cdb2 cabe a601 adbe 0d6a e93e
00000100: 08d0 1fbf 5447 0cbf e3e7 9dbe 1c70 41be
00000110: 5914 b8be ff50 91bf 4609 48bf 7c2d 4e3f
00000120: 1352 7bbe 5750 fbbe cfbe c7be c408 813e
00000130: ddb9 c7bd 845a 56bf 2879 503e 6d67 23be
00000140: ce43 923e ba45 94be 83c9 9bbe 6be9 70bf
00000150: c6fa d9be 9743 1e3c 4bb0 f8be 3b32 34be
00000160: 121d e2be 2929 9abd 66d6 0abf 24be 86bf
00000170: d67a 68bd ad0a 9cbe 0a03 893d 7419 6c3e
00000180: af31 3d3e 74aa 3dbd 6f8f d3be 6ade eebe
00000190: 080d af3e aa56 6e3e c2a4 c8be 7d70 523f
000001a0: 3529 2fbe 6a79 e5be 9fbc cebe b3f4 c4be
000001b0: 86cb 1dbf 40aa 51be b102 4abe 6398 18bf
000001c0: ee65 0cbf ebbf 403f d923 553d eae4 30be
000001d0: 5a50 e2be bf99 503f 89c4 543e 3f6a e5be
000001e0: 2318 18bf c59f b9be 7f87 18bf 6475 9cbe
000001f0: 3583 843a dff0 c3bc 1127 5cbe e25d 02bf
00000200: c54d 1ebe d39c 08bf 7603 5c3e 1315 d0be
00000210: 4f3c 89bf 06b9 abbd eb10 7abe 00f3 5bbe
00000220: 6c9a b5be 1eb8 30be f26d 8e3d f992 a03d
00000230: 595a c9bd 3972 6c3e 07da 9bbe e887 ebbe
00000240: 0ef0 e3bd 0e19 843e 6315 12be 072a 92be
00000250: 0101 093e 6298 74be 7e86 073e a03c 893e
00000260: d46c 6fbe 9ec2 febe 6c01 4abe a6ae 203e
00000270: 9ceb 123f e16a 6fbe cccc 8dbd 985a bcbe
00000280: 9db0 7e3f 5084 e6be 387d c2be ac57 b7be
00000290: 0e69 14bf c4c7 b73e 4023 b7be 622f 04be
000002a0: 0867 5b3d 1325 0dbf 11d0 9d3e 3163 aa3e
000002b0: 1247 333f 4691 bebe 978e 313f 7a6a 5d3f
000002c0: c2c6 73be b562 8dbe 9226 e6be fa05 163f
000002d0: a4a7 35bd f3fc 5bbf 7958 6b3c d705 e9be
000002e0: 9612 4abe 4f8a 9abe 4934 28bc 910c 82be
000002f0: 2a1b b4be a939 aebe 130b 553f 9dde 0fbe
00000300: 5678 353f 0f3d 6abe 828c 4b3e 70b7 95be
00000310: a61f 96be 75c8 0abf 3abe 5f3b 3830 5cbf
00000320: 42c0 073f 2e5f bf3d e59b 813e 64c9 a83e
00000330: e941 03bf bd7b a83e b20e fe3c f3a4 eb3e
00000340: 71dc 4a3e b843 963e e981 023f 1023 c23d
00000350: 7dd1 563e faea 5fbe 496d e03e 742d 043e
00000360: 1263 05be 7adc 063f 7c4d 69be 48ab a93e
00000370: beec b03e 021b 423e 9a82 363c 2043 243e
00000380: 954d c73d 7a1c b73e 5477 74be fe83 863e
00000390: 582d 77be 3d57 113e 3ebc ce3e 58e0 b03e
000003a0: e1d2 9e3e de87 de3e 7477 04bf 564a 853e
000003b0: 29cb 723e f0e4 13be 0518 a23c 7cf6 db3e
000003c0: 03b4 05bf cd1d 98be ec59 14be 0623 e6be
000003d0: bd89 b93d 913e 983e 8402 e33e fb05 a6be
000003e0: 34b8 483d 4863 52be 186a e93e 3ccf 623e
000003f0: 0be8 7b3e bc04 023f d485 103e aa5f 253e
-0.53282243 -0.20727842 -0.15469198 -0.310498 -0.25156343 -0.39684412 -0.67075175 -0.33004507
-0.6225503 -0.08959608 -0.37462297 -0.39650983 -0.21104036 -0.08715616 -0.35135654 0.14761138
-0.45937493 -0.5593526 -0.072932534 -0.24958085 -0.40413126 0.20768522 -0.35848358 -0.12458692
-0.6623666 -0.3452753 -0.16328637 -0.15296717 -0.504766 -0.52859294 -0.101476215 -0.3112959
-0.23041065 -0.37861964 0.44873106 0.70886886 0.5175349 0.4369348 0.03132704 -0.3099288
0.59427994 -0.09652677 0.18056029 1.2237058 0.08547678 0.29823717 -0.46565 -0.54195297
-0.5902936 -0.073683776 -0.5330946 -0.13806836 0.22779319 -0.38737768 0.5802394 -0.1408013
-0.30806708 -0.04103659 0.39440775 -0.47494787 0.5208924 -0.3958954 -0.3379032 0.45588723
-0.62426805 -0.5479634 -0.30840978 -0.18890423 -0.35953024 -1.1352843 -0.7813915 0.80538154
-0.24543028 -0.49084732 -0.39012763 0.25202 -0.097522475 -0.83731866 0.20358717 -0.15957423
0.28567356 -0.28959447 -0.3042718 -0.9410617 -0.42574137 0.009659669 -0.48572 -0.17597286
-0.44162804 -0.07527382 -0.54233396 -1.0526776 -0.05675777 -0.30476895 0.06690033 0.23056585
0.18475984 -0.046305135 -0.4132037 -0.46654063 0.3418963 0.23275247 -0.391882 0.82202893
-0.17105563 -0.44819194 -0.4037828 -0.3846794 -0.6163868 -0.20475101 -0.19727589 -0.59607524
-0.5484303 0.75292844 0.05203614 -0.17274824 -0.44201928 0.814846 0.20778097 -0.44807622
-0.5941183 -0.36254707 -0.5958175 -0.30558312 0.0010109904 -0.023918567 -0.21499278 -0.50924504
-0.15459354 -0.53364295 0.21485695 -0.40641078 -1.072153 -0.083849 -0.24420516 -0.21479416
-0.35469377 -0.17257735 0.06954564 0.07840533 -0.098316856 0.23090447 -0.3043978 -0.46002126
-0.11129771 0.25800365 -0.14265971 -0.2854769 0.13379289 -0.23886254 0.13234898 0.26804066
-0.23381358 -0.49757856 -0.19727105 0.15691623 0.5739076 -0.23380615 -0.069238275 -0.36787868
0.9948824 -0.4502282 -0.3798616 -0.35809076 -0.579728 0.35894597 -0.3576908 -0.129087
0.053565055 -0.55134696 0.30822805 0.33278802 0.7003032 -0.3722021 0.693582 0.86490595
-0.23806289 -0.2761437 -0.44951302 0.5860287 -0.044349328 -0.85932845 0.014364355 -0.45512268
-0.19733652 -0.30183646 -0.010266372 -0.25400212 -0.35176975 -0.34028366 0.8322002 -0.14049764
0.70886743 -0.22874855 0.19877818 -0.29241514 -0.2932102 -0.54212123 0.0034140483 -0.86011076
0.5302774 0.09344326 0.2531425 0.3296615 -0.51272446 0.32906905 0.031012867 0.46024284
0.19810654 0.2934854 0.5097948 0.09479344 0.20978351 -0.2186698 0.43833378 0.12907964
-0.13026074 0.5268017 -0.22783464 0.3313849 0.3455562 0.18955615 0.011139536 0.16041231
0.097315945 0.35763913 -0.23873645 0.26272577 -0.24138391 0.14193435 0.40377992 0.3454616
0.31020263 0.43463033 -0.5174477 0.26033276 0.23710312 -0.14442801 0.019786844 0.4296149
-0.522278 -0.29710236 -0.14487427 -0.44948596 0.090594746 0.29735234 0.44337857 -0.32426438
0.049003795 -0.20545685 0.45588756 0.22149366 0.24600236 0.50788474 0.14113551 0.16149774

layer2.bias f4 [100]
00000000: 46e2 3ebf 14dc 533f 5f18 4b3f 2535 573f
00000010: e30b 3a3f 60a6 683f 2ac5 493f 570d 373f
00000020: e56d 6f3f a5f9 e2be acfc 4b3f 0119 05bf
00000030: 63de 473f 8399 553f 80f7 4c3f 036b 3abf
00000040: e8e3 cbbe ca83 08bf 437d f0be 44c4 23bf
00000050: b1eb 6c3f 9a9a 603f 5f8e 463f 4b8b 553f
00000060: c034 413f 48d6 4b3f c505 303f 31db e3be
00000070: 3817 483f ee01 5e3f 215b 493f b5ad 2bbf
00000080: b249 83be 7bd4 33be bc4a 4bbf 8831 92be
00000090: df09 573f 556d 3f3f 05bf 513f 614d 29bf
000000a0: 2469 12bf 3417 593f baee 4d3f 1f8b 4e3f
000000b0: b396 06bf 66b5 583f e425 00bf e18e 07bf
000000c0: cd76 713f 7bd8 683f 1c74 11bf 0bc6 603f
000000d0: 7b8f 1fbf 13a3 673f 14e3 513f 4f9c 3abf
000000e0: c654 463f bb62 08bf cf00 223f 33b5 1cbf
000000f0: 3383 4c3f 9818 2d3f e0aa 5f3f 8a61 4fbf
00000100: 06aa 2abf f26f abbe 8278 643f 4db3 5d3f
00000110: 4efe 27bf c978 e8be a8e8 37bf f454 3ebf
00000120: 6e0d 6ebf 75cd f9be 5674 653f cd9c 3f3f
00000130: 0543 30bf a6cb 6fbe 6172 6d3f 81c6 21bf
00000140: 58ea 653f 4986 423f 98e9 1dbf 8f3c 29bf
00000150: 3fa3 283e eb2b 35bf 5e40 3abf 8b00 0fbf
00000160: 4d97 79bf c9a0 e63e 7293 6a3f fab1 64bf
00000170: 2c65 5bbe 1830 2fbf 545c 09bf aac7 773f
00000180: 2278 5b3f 2145 453f 5784 12bf 9e3b fabe
-0.74564016 0.8275769 0.7933406 0.8406547 0.7267439 0.9087887 0.78816473 0.7150473
0.9352706 -0.4433109 0.7968242 -0.5199128 0.7807371 0.83437365 0.80065155 -0.72819537
-0.39822316 -0.53326094 -0.46970567 -0.6397135 0.92547137 0.87735903 0.7756099 0.8341567
0.75471115 0.7962384 0.68758804 -0.44503167 0.7816043 0.86721694 0.78654677 -0.6706193
-0.25642163 -0.17561524 -0.7941091 -0.28553414 0.8399944 0.747762 0.819321 -0.66133696
-0.5719168 0.8480103 0.8044239 0.8068103 -0.525737 0.8465179 -0.50057817 -0.5295239
0.943219 0.90955323 -0.56817794 0.8780219 -0.6232831 0.90483207 0.8198712 -0.7289476
0.77473104 -0.5327565 0.63282484 -0.6121399 0.79887694 0.6761565 0.8737011 -0.8100821
-0.66665685 -0.33483845 0.8924638 0.86601716 -0.65622413 -0.45404652 -0.7183938 -0.7434838
-0.9298924 -0.48789564 0.8963064 0.74848634 -0.68852264 -0.2341753 0.92752653 -0.6319352
0.89810705 0.7598615 -0.6168456 -0.6610803 0.16468523 -0.7077014 -0.72754467 -0.55860204
-0.9749649 0.45044544 0.91631234 -0.8933407 -0.21425313 -0.6843276 -0.53656507 0.9678904
0.85730183 0.7705861 -0.57233185 -0.4887361

out1.weight f4 [3, 100]
00000000: eff8 9b3e d3a7 033f e94f 033f 0f28 fc3e
00000010: 41ca 1b3f 7f27 1a3f 2263 093f 2743 0d3f
00000020: a0d8 003f f103 a0be 8065 eb3e 3a69 8cbe
00000030: 1323 193f 61e2 093f 83c7 043f a975 083f
00000040: ed04 953e c819 303f e3d1 cebe 90aa 90be
00000050: 12df 2f3f 19a4 1f3f 24b9 043f 200a 203f
00000060: 86f9 cd3e ac85 2c3f 773d e03e bafe 85be
00000070: 339b 0f3f 9a72 063f 1c67 ea3e f4f7 d93d
00000080: 4b41 9bbe dfdc 4cbe f34a bb3e ab8a d0bd
00000090: 6514 203f 7bb4 c93e 19d0 003f 225b a8bd
000000a0: 2e0b 89be 8cd6 073f 9067 003f 3d73 d93e
000000b0: 94e5 323f 6e3b 253f 8a14 243e 5824 41be
000000c0: d5d6 013f 8cf9 2d3f cad4 96be bb57 103f
000000d0: 0d05 20be b9e6 153f aa14 0e3f 062d 2b3f
000000e0: 9ed8 233f f6cc c8be ca83 ed3e a5ca 073f
000000f0: 41ae f93e a669 f63e 94ce 133f 9821 39bb
00000100: 166f ed3e a337 0ebf b522 273f c45c 2c3f
00000110: 1333 56be 8dab ad3e d1fc 0e3e 482a 2cbb
00000120: 466f 2bbf 4ceb d03e 9a15 1b3f baf6 1c3f
00000130: 4c3a 6a3e 17a7 e93e dc56 0d3f 6585 43be
00000140: cde5 253f ad05 2c3f 09ff 5dbe 23fc 173f
00000150: 8e04 fcbd 49b1 043f 43bb afbe 46ba 53be
00000160: a6ca 2cbf eef3 203f 6399 033f 2102 1cbf
00000170: a591 4d3e 4b2d 4ebe d3a6 8cbe b343 323f
00000180: e5a8 2c3f de7c 283f 4c13 0c3e c105 783e
00000190: 5c25 883e 2432 b93e fc42 973e dffc a13e
000001a0: d3bf b23e ad80 e63e 31f8 9f3e 7adf 993e
000001b0: 7434 923e 9953 3dbe 229c c13e a3e6 acbd
000001c0: 8b5f d53e 8593 a13e 736e 993e a69a fe3e
000001d0: 6709 8a3d b6e8 e73e ca03 d7be 7cf1 67bd
000001e0: eddd dd3e 9e79 d03e e02b b93e fed4 9a3e
000001f0: 3a70 943e 07f2 ed3e fa42 9c3e 60e5 bdbc
00000200: 2142 ae3e bf27 d13e 1efb 833e 7584 4abe
00000210: 614a 41be f7ad b5be a709 c73d 8568 eb3d
00000220: 8b48 9c3e 8bef ca3e 3503 853e e0db 853e
00000230: b048 15be 502f cc3e 6f86 4b3e 50cc bc3e
00000240: 246b 563e 86d0 863e 4a61 6c3e ca8e 3bbc
00000250: 39c6 bf3e 22a5 e73e ff0a 07be fb8b b03e
00000260: b8fa 1cbd 6040 a03e 8f24 a23e 810f e63e
00000270: 6f25 ac3e ecf8 fcbd 75d9 843e d161 f33e
00000280: dba6 b33e 67c0 d03e 2925 983e 7ae6 803e
00000290: 9e5c b13e 41d0 0a3e 316c d63e c0b7 d93e
000002a0: 4a1f 1bbe 72d5 8d3e 1078 893e 79a0 883c
000002b0: 67af babe c7c8 973d afd3 ec3e f427 a03e
000002c0: 6373 d53e 3439 d33d c39c e13e 4afa 493e
000002d0: 2807 c23e 822b a53e 5e9b 12be ea75 dc3e
000002e0: 8a6d 18be 0b8b ed3e b672 07be ea2d a93e
000002f0: bf0c cfbe d547 7f3e 0c41 b83e ee7a 9abe
00000300: 86fb 623e f32e 98bd 9e4b c0bd 78c7 db3e
00000310: b994 b73e 0dcd e43e 613b 063e 3668 0c3f
00000320: 3dfe ba3e 5269 753e 78ef 2f3e 06cd a83d
00000330: da37 2c3e 1feb 773e 7171 733e 46d0 e63d
00000340: 213e 973e 66b6 c83c 2830 633e 75ce 633d
00000350: 5d0c 243e 9535 093e 9752 893e 9501 f33e
00000360: 8c14 a3bd a6ea 1e3e 47d2 d4be 3a71 223d
00000370: c559 943e e009 3d3e cbe2 593e d862 973e
00000380: d5c1 0f3e b84c 093e 5ea0 323e 079a 533d
00000390: 0fe7 fe3d 2202 693e 9f83 1c3e a328 8bbc
000003a0: 399e ab3d a6bd 83be 9bb3 b23e ea4e bd3e
000003b0: f1bf 693e a7f6 2a3e 745c a73d 9c5e 03bd
000003c0: 7851 25be 6e2f 8a3e bca4 d6bd eda7 6d3e
000003d0: 1de3 13bd 8bd2 6a3d ed9f 583e 2a94 763e
000003e0: ba2a 763e 5499 903e 5c84 903d 7aaf b73d
000003f0: 16c3 183e 6d69 793e 5ac4 813e 5528 183f
0.3046336 0.51427954 0.5129381 0.49249312 0.6085549 0.60216516 0.5366689 0.5518059
0.50330544 -0.31253007 0.45975876 -0.27424031 0.59819144 0.5386105 0.5186693 0.53304535
0.2910532 0.6878934 -0.40394506 -0.2825513 0.68699753 0.6235977 0.51845 0.6251545
0.40229434 0.6739147 0.43796894 -0.26170903 0.5609619 0.5251862 0.4578179 0.106429964
-0.30323252 -0.2000613 0.3658062 -0.10182699 0.6253112 0.39395508 0.5031753 -0.08220507
-0.26766342 0.5306175 0.50158024 0.42470732 0.6988156 0.6454381 0.1602346 -0.1886152
0.5071843 0.67958903 -0.2945922 0.56383866 -0.15626927 0.5855518 0.5550028 0.66865575
0.64002407 -0.39218873 0.4638961 0.53043586 0.48765758 0.48127478 0.5773709 -0.0028248783
0.46373814 -0.55553645 0.65287334 0.6732905 -0.20917921 0.33919945 0.1396363 -0.0026270319
-0.66966665 0.40804517 0.60579836 0.61313975 0.22873801 0.45635292 0.5521066 -0.19093855
0.64803773 0.6719616 -0.2167932 0.59369105 -0.12305556 0.51833016 -0.34322557 -0.20676526
-0.67496717 0.6287221 0.51405925 -0.6094075 0.2007509 -0.20134465 -0.27471027 0.6963455
0.6744521 0.6581553 0.13679236 0.24220945 0.26591003 0.36171067 0.29543293 0.31638238
0.34911975 0.45020047 0.31244043 0.30053312 0.28555644 -0.18488921 0.37814432 -0.08442428
0.41674456 0.3155786 0.2996708 0.49727362 0.067400746 0.45294732 -0.41995078 -0.05662678
0.43333378 0.40717787 0.36166286 0.30240625 0.28991872 0.46473715 0.3051985 -0.023180664
0.34034827 0.40850636 0.25777525 -0.19777091 -0.1887603 -0.35484287 0.09718638 0.11494545
0.30524096 0.39635882 0.2597901 0.26144314 -0.1457851 0.39879847 0.19875501 0.36874628
0.20939308 0.26330966 0.23083988 -0.011447618 0.3745592 0.45243174 -0.13187788 0.34481797
-0.03832504 0.31299114 0.31668517 0.44933704 0.3362231 -0.123521656 0.25947157 0.47535565
0.35088238 0.4077179 0.2971585 0.2517584 0.34640974 0.13556005 0.41879418 0.42523003
-0.15148655 0.27701908 0.26849413 0.016678082 -0.36461946 0.07411342 0.46255252 0.31280482
0.41689596 0.10313645 0.44064912 0.19724384 0.37896085 0.32259756 -0.1431708 0.4305871
-0.14885536 0.46395144 -0.13227352 0.33042842 -0.40439412 0.24929745 0.35987127 -0.30171913
0.22166261 -0.0743083 -0.09389423 0.4292562 0.35855654 0.4468769 0.13108589 0.54846513
0.36522093 0.23965958 0.17181194 0.0824223 0.1681818 0.24210785 0.23773743 0.11270194
0.29539588 0.024501037 0.22186339 0.055616815 0.16020341 0.13399346 0.26820824 0.47462144
-0.079629034 0.15519199 -0.4156668 0.039658763 0.2897474 0.18460798 0.21277921 0.295676
0.14038785 0.13408172 0.17443988 0.051660564 0.12446415 0.2275472 0.15284584 -0.01698715
0.08379788 -0.25730628 0.34902653 0.3697427 0.22827126 0.16695653 0.08171931 -0.03207265
-0.16144359 0.2698931 -0.10480639 0.2320859 -0.036105264 0.057329696 0.21154757 0.24079958
0.24039736 0.2824198 0.070564955 0.089690164 0.1491817 0.24356623 0.25345117 0.5943654

out1.bias f4 [3]
00000000: 4fb8 8f3f e95e 923f 65e0 a13f
1.1228122 1.1435214 1.2646605

out2.weight f4 [3, 100]
00000000: 6fc1 6b3e 5c37 e43e e60d e83e d5b3 aa3e
00000010: a8a1 c73e 4c9a ec3e 1146 e53e 957f dd3e
00000020: d199 fd3e a414 71be 7bf1 da3e 5f8e 9dbd
00000030: c828 dc3e 17aa d53e 150d d73e 187e fc3e
00000040: 72a0 a2bc c0d2 083f db56 fdbe 7468 8ebd
00000050: bff9 ed3e 9b3d a73e 8ae5 d33e 92ba c73e
00000060: 07ea d73e b0bb d63e 530c e43e 03fa 61be
00000070: 0b9c ee3e a049 d53e 427a bd3e a9a9 483c
00000080: 2099 8fbe ccd0 b3be c6ee a33e 32e8 833e
00000090: 8a56 f23e 3df7 8f3e 0b27 af3e df01 4e3d
000000a0: 1ad1 88be b808 d73e f500 b33e 7d44 9d3e
000000b0: df9f 623e 6aa7 cc3e 24ef 603e 525a de3c
000000c0: ba41 023f 1216 b83e debc 32be 8942 c33e
000000d0: 987e 23bc e8d6 dd3e c22e bd3e 0c5f 023f
000000e0: b588 db3e 0371 7fbe c236 773e 6ca7 083f
000000f0: ea93 d73e 5a22 ae3e 6d7a fa3e 07b4 9e3e
00000100: 0f27 aa3e 6cc4 103d fffd e93e 7c37 ec3e
00000110: dbfe 23be 0f61 e93e 6ee4 8a3e 95a3 323d
00000120: 856f e1be c228 673e 2a2f f43e 482e e63e
00000130: fb1f eb3e a663 7dbd a0d7 e73e e900 853d
00000140: c428 b53e b101 a93e 6516 3cbe b10d f53e
00000150: 77bb 8abd 689b d43e c55f 3cbe ef7c c23d
00000160: c054 fbbe a3e7 5f3e 8c64 f03e d2fb d3be
00000170: 0c8a 4b3d f65b ffbd 664c 63be 6fe4 f23e
00000180: 2648 f03e fee0 b13e 33a4 163e f1f2 ed3e
00000190: 576b a43e c0b6 aa3e 095d 883e b1f5 443e
000001a0: 39a0 ec3d cc98 803e 2964 493e e84e 123e
000001b0: 9bb8 9b3e 05be edbd 17c6 463d f222 8abe
000001c0: 1718 703e c073 523e 081d b53e 96c4 7e3e
000001d0: 3f1b 05be a9a2 003e 5493 0dbf e065 d9bd
000001e0: 7efa 773e 5272 b23e eec2 32bc 851f 833e
000001f0: ff76 433e 327c 9c3e 4802 16bc 265a 8ebe
00000200: 3bef 333e cc0f a43e dfb7 223e 4ef9 5dbe
00000210: c2ff 6cbe 3534 23bd 1c91 e03c bf2f cc3e
00000220: 0ff0 813e efe6 3f3e f232 2f3e 4276 603d
00000230: 0d4e 18be ad4a cb3e e597 7b3e b2d0 233e
00000240: e9c2 fcbc 9f73 a43e e781 753e 19d9 d13d
00000250: 7ce0 a33e bcb4 cc3e 46d7 97be 715e 963e
00000260: 8d1e 4c3c a8b0 b33e b672 af3e 6ee2 d43e
00000270: a57a aa3e 70ca 66be b98b 9c3d b6ee 853e
00000280: 0188 553e 1e8b 823d 51b8 803e dcc6 893e
00000290: 37d7 aa3e 2758 66bc 5a19 a33e b52c a93e
000002a0: 02f7 8cbe 3f06 4d3e 78ed f63c 62d1 f2bd
000002b0: 8ce7 93be e24f 243e f312 933e 5c96 0d3d
000002c0: 7230 833e ebcb 92be c14f 683e 1de4 d13d
000002d0: a023 8f3e 8594 a33e 18db 68be e292 9a3e
000002e0: 3f2c 3fbe 827b 743e 2274 a5be b075 10be
000002f0: de77 b8be cffd 153e ee6e ba3e 6db1 87be
00000300: 0e9a a4be a6af d0bd 24f4 f1bd 3134 8a3e
00000310: b7a6 b63e 6e9c b53e f430 64bd 02ae 0d3f
00000320: 4933 313e afc8 7c3e f0a3 943e 5caa 723e
00000330: 0b6d 883e 0e62 343e 7fdb f23d cf47 573e
00000340: 7bfb 933e 73b5 b5bd 61c4 f23d 94d0 f43d
00000350: e1b8 f13d 6464 903e 8f1a 773e 0c56 f43e
00000360: c7a8 c2bd a1bf 823d 3661 dabe d897 ac3c
00000370: 3354 713e 72d3 213e c4a7 8c3e a5b4 853e
00000380: f909 883d 5c81 4c3e c34d 053e 3049 533b
00000390: f49a 723e 8d90 023e 98fb 533e 48d3 6bbd
000003a0: 1158 acbc 06e3 2ebd b186 b53e c81d 003f
000003b0: 85f6 233e 55bf 393e 09c7 1f3e 2c1a 08bd
000003c0: b79a 40be a2d2 143e ac19 383d 8a7d e53d
000003d0: 2d52 90bd c488 c13c 5732 6b3e 96e1 9a3e
000003e0: 1c28 833e 5dcf 7e3e da96 a0bd c0ae 3f3e
000003f0: 318d b13d c4d3 8e3e 71a1 293e 1c1c bd3e
0.23023008 0.44573486 0.45323104 0.33340326 0.3899052 0.4621147 0.4478002 0.432614
0.49531415 -0.2354303 0.4276236 -0.07693171 0.42999864 0.4173133 0.42002168 0.49314952
-0.019851897 0.5344658 -0.49480328 -0.069535166 0.46479604 0.3266419 0.41386062 0.3900953
0.42170736 0.4194007 0.44540653 -0.22068028 0.46603426 0.41657734 0.37007338 0.012247481
-0.28046513 -0.35120237 0.32018107 0.25763088 0.4733165 0.28118315 0.34209475 0.050294753
-0.26722032 0.4199884 0.34961668 0.30716315 0.22131298 0.39971477 0.21966225 0.027142677
0.5088154 0.35954338 -0.1745486 0.381367 -0.009978913 0.43328023 0.36949736 0.5092628
0.42877737 -0.24945454 0.24141982 0.53380466 0.42105037 0.34010583 0.48921528 0.30996725
0.33232924 0.035343572 0.45701596 0.4613608 -0.16015188 0.45581862 0.27127403 0.043613035
-0.44030395 0.22574142 0.47692233 0.44957185 0.45922837 -0.06186261 0.45281696 0.06494314
0.35382664 0.33009103 -0.18367918 0.47862008 -0.06774037 0.41524816 -0.18395908 0.094964854
-0.49088097 0.21865706 0.4695171 -0.4140306 0.0496922 -0.12468712 -0.22197112 0.47439906
0.46930045 0.34741968 0.14711075 0.46474412 0.32113144 0.33342552 0.2663348 0.19234349
0.115539975 0.25116575 0.19667114 0.14287913 0.3041428 -0.11608509 0.048528757 -0.26979786
0.2344669 0.20551968 0.35373712 0.24879679 -0.12998675 0.1256205 -0.5530293 -0.10615134
0.24216649 0.34852844 -0.010910733 0.25609985 0.19088362 0.30563504 -0.009155817 -0.27803153
0.17571728 0.32043302 0.15890454 -0.21677133 -0.23144439 -0.03984471 0.027412944 0.39880177
0.25378463 0.18740438 0.17109278 0.05480028 -0.14873524 0.3970541 0.24569662 0.1599758
-0.03085466 0.32119462 0.23975335 0.10246486 0.32007205 0.3998164 -0.29656428 0.29368928
0.012458456 0.35095716 0.34267205 0.41579002 0.33296695 -0.22538161 0.076438375 0.26158684
0.20852663 0.06374191 0.25140622 0.2690953 0.3336732 -0.014059103 0.3185528 0.3304192
-0.27532202 0.20021914 0.03014253 -0.11856343 -0.28887594 0.16046098 0.28725395 0.034567222
0.25622898 -0.28671202 0.22686674 0.10248587 0.27956867 0.3194925 -0.22739828 0.30190188
-0.18669222 0.2387524 -0.32315165 -0.14107394 -0.3602895 0.14647602 0.36412758 -0.26502553
-0.32148784 -0.10189752 -0.11814144 0.26992944 0.35674068 0.3547091 -0.055710748 0.5534364
0.1730472 0.2468593 0.29031324 0.236978 0.26645693 0.1761553 0.11858272 0.21023487
0.28902802 -0.08872499 0.118538626 0.119538456 0.11802841 0.28201592 0.24131225 0.477219
-0.09504848 0.063842066 -0.4265229 0.021068498 0.23567276 0.15803316 0.27471745 0.26114383
0.06642527 0.19971222 0.13017945 0.0032239668 0.23691922 0.12750454 0.20701444 -0.05757454
-0.021038087 -0.042696975 0.35454324 0.5004544 0.16012008 0.18139394 0.1560327 -0.033228084
-0.18809019 0.14533475 0.044946358 0.11205585 -0.07046924 0.023624785 0.22968422 0.30250233
0.2561654 0.2488379 -0.07841273 0.18719006 0.08669508 0.2789594 0.16565491 0.36935508

out2.bias f4 [3]
00000000: ab40 a93f e60d 9c3f 9cc4 a63f
1.322286 1.2191741 1.302875
